Assets/models/PlayerBehaviour.onnx (onnx, 368179 bytes, 11 tensors)

action_model._discrete_distribution.branches.0.bias f4 [3]
000000 93 24 3a bd 05 35 c7 3d ff 53 70 bd
       -0.045445036 0.097269095 -0.058673855

action_model._discrete_distribution.branches.0.weight f4 [3, 256]
000000 bb 76 cb bc be 1d 94 bc d4 f3 94 3c d7 c1 34 3d
       -0.024836889 -0.018080588 0.018182673 0.044130173
000010 e5 fd e0 39 69 5d 6f 3d 66 83 46 bb 23 56 99 3c
       0.00042913776 0.058438692 -0.0030290722 0.018717831
000020 58 6d 20 3c 5c 12 2c bd fb f4 09 bd 22 fc ff 3c
       0.009791695 -0.042009696 -0.033680897 0.031248156
000030 0c b3 58 3c dc e5 22 ba f8 38 52 bc 37 90 c8 3c
       0.013226282 -0.0006214061 -0.012830965 0.02448283
000040 44 38 aa 3c 95 8e 67 bb 6d 05 81 bb 35 e0 fa 3a
       0.020778783 -0.0035332788 -0.0039374144 0.0019140305
000050 d0 f2 ab 3c d0 02 a6 3d 71 37 49 3d ef 7b fd 3c
       0.020989805 0.08106005 0.04912514 0.030942885
000060 c2 79 d9 3c 38 02 01 bc 39 41 a9 3c c1 e0 9b 3c
       0.026547316 -0.007874064 0.020660983 0.01902807
000070 96 df 4e 3d bb 4f 02 bd 1a 57 94 bd 4c 1a 9b bc
       0.050506197 -0.03181432 -0.07243176 -0.018933438
000080 46 75 08 bb 98 17 f3 3b 54 86 70 bb b8 5f 0c bd
       -0.0020821854 0.007418584 -0.003670116 -0.034270972
000090 c0 10 50 3c 07 97 7d bc 56 ca 9c bb e1 af 60 bc
       0.012699306 -0.015477902 -0.0047848625 -0.013713808
0000a0 df 0f 7e bb 47 63 8c bc 18 1b 0f bc bd 6e b0 3b
       -0.0038766784 -0.017137183 -0.008734487 0.005384295
0000b0 4b a6 15 3b 3b d8 a4 3c 22 a3 c9 bb 79 ea b3 3c
       0.0022834714 0.020122638 -0.00615348 0.021962391
0000c0 df cb ce 3c 2b f4 4a 3c 64 34 e3 bc 10 6a c1 3c
       0.025243698 0.012387316 -0.027734943 0.023610145
0000d0 8b 6d 8f 39 1f 55 bd bc 63 a7 15 3d 2e ff 29 bd
       0.000273567 -0.023111878 0.036536586 -0.041503124
0000e0 6c fb ea bb 48 7d 10 bb de b1 0c bd d6 a2 a9 3c
       -0.007171085 -0.002204733 -0.034349315 0.020707529
0000f0 a2 3c 16 bc 79 60 25 bc 38 c5 a2 3c 28 e1 19 bb
       -0.009169729 -0.010093802 0.019869432 -0.002348015
000100 15 60 6c bc 8a 20 ec 3c 38 5e 43 bc b6 23 23 bc
       -0.014427205 0.02882411 -0.011924319 -0.009957245
000110 e8 69 49 3d 72 8b d3 bc 8d 9e 31 bb 82 c7 b2 3c
       0.049173266 -0.025823329 -0.002710256 0.021823648
000120 df 6f b6 bc 2e 72 a1 bc f7 68 6e bd c9 be 0f bd
       -0.022270141 -0.019707765 -0.05820557 -0.035094056
000130 87 fe 3c 3d 70 ab b9 bc f8 56 bb bb 17 cb 8e bd
       0.046141174 -0.022664756 -0.0057171546 -0.0697233
000140 ac 49 1d 3d db 44 93 bc 1b a2 de 3a af 4c 71 bc
       0.038400337 -0.017977169 0.0016985567 -0.014727755
000150 a1 8e 82 bb d1 fe 85 3c 9b d0 3a 3c cf 78 d2 bc
       -0.003984288 0.016356857 0.0114022745 -0.025692372
000160 c5 ed 6a 3c c7 07 46 3c e9 37 dc 3c 35 e1 95 bc
       0.014338915 0.012086815 0.026882129 -0.018295864
000170 ee df f2 3b c3 9d 16 3c cd 73 5e 3d fb fa 8c 3c
       0.0074119484 0.009192887 0.054309655 0.01720952
000180 f1 3c 24 3d 00 84 cc bc fc 17 0b bd 34 0b 37 3c
       0.04009718 -0.024965286 -0.03395842 0.011172105
000190 24 91 67 bc 4f c4 7a bb 06 02 05 3a 43 dd 13 3c
       -0.014133725 -0.0038263982 0.0005073849 0.009024921
0001a0 e4 55 17 bd 54 0d d3 bd e7 c2 f2 3c 8b 06 51 bc
       -0.036947146 -0.103052765 0.029633952 -0.012757908
0001b0 62 6f ff bb 72 2f 75 3b 49 5b 0e 3d eb a5 66 bc
       -0.0077952603 0.0037412313 0.034755025 -0.014077644
0001c0 66 e7 e1 bc 0e fe 2a ba 53 13 5d 3b 8d a9 42 3d
       -0.02757616 -0.00065228425 0.0033733442 0.047524977
0001d0 d8 fb c3 bc f0 61 89 3c 23 cb 5d 3c 75 04 30 bc
       -0.0239238 0.016770333 0.013537201 -0.01074325
0001e0 de ce 6e 3c c5 6c 27 bc 5c 0a 75 bc 7c 87 29 ba
       0.014575688 -0.010218804 -0.014956083 -0.0006467027
0001f0 ac 24 73 3c 6f 57 1b 3d 08 cc 13 bd 42 27 2a bc
       0.014840286 0.03792518 -0.03608325 -0.010385336
000200 8c f1 08 bd d1 d7 24 3d 6d 2f 37 3c 6d 39 8f 3c
       -0.033433482 0.04024488 0.011180741 0.017483437
000210 f6 65 a0 bd e8 90 a0 bc 5f c2 dc bb ce 26 6c bc
       -0.078319475 -0.019600347 -0.006737038 -0.014413549
000220 82 5e 19 bc ae 21 1f 3d 78 bb 03 3d 62 0c ef 3c
       -0.009360911 0.03885048 0.032161206 0.02918071
000230 5b 09 4a 3d 18 da 94 ba cd 0d 63 3c 6a ea 21 bd
       0.04932533 -0.0011356501 0.013858271 -0.039530195
000240 76 43 f3 3c 69 00 3c 3d 3d 78 6e 3d 93 59 34 3d
       0.029695254 0.04589883 0.058220137 0.044030737
000250 e2 4e e7 3b a5 14 18 3d 07 ae 34 bc b1 2e 1e 3d
       0.007058964 0.037129063 -0.0110278195 0.038618747
000260 07 f9 3c bc 65 e9 a9 bd 8e 81 c1 3c 86 72 d4 ba
       -0.011533982 -0.082964696 0.023621347 -0.0016208447
000270 1a 96 90 bc a1 d0 5a 3c fd 1c 47 bb 3e 0f e0 3c
       -0.017649699 0.013355405 -0.0030382269 0.027351018
000280 9b 3f fc 3c bd 66 0e bd 39 c1 a1 3c d5 2f 27 bd
       0.030792048 -0.034765948 0.019745456 -0.0408171
000290 f5 b7 b0 3c e1 5d 15 bd 37 a2 3c bd cf 78 58 3c
       0.021572093 -0.036466483 -0.046053138 0.013212397
0002a0 80 59 50 3b 04 66 71 3c af 31 8d 3c f9 40 b5 3a
       0.0031791627 0.014733795 0.017235605 0.0013828567
0002b0 81 ee 4f 3c b0 56 50 3d a7 a0 c9 3c 59 25 d2 ba
       0.012691141 0.05086392 0.024612738 -0.0016032859
0002c0 59 2d 91 3c 63 d6 16 bb 65 4b 94 bc d5 cc 93 3a
       0.017721819 -0.0023015968 -0.018102357 0.0011276255
0002d0 fa 94 0f bb ad 2e c6 bc 4c 93 0b bc e6 a7 85 3d
       -0.0021908865 -0.024192179 -0.008519005 0.06526165
0002e0 b5 34 8f bd e1 0f 25 bd 10 a2 68 3d 8b 8e 83 bb
       -0.06992475 -0.040298346 0.05679518 -0.004014795
0002f0 7c a8 ca bc 90 f4 92 bc 36 3e 56 3d 97 fc 0e bd
       -0.024738543 -0.017938882 0.052305423 -0.034908857
000300 1a b5 58 ba aa 78 bc bb 4b 1f 5c 3c bf 19 f8 bd
       -0.00082667323 -0.005751689 0.013435195 -0.12114286
000310 ed d1 0b bd 23 62 44 3d db 37 f6 bc 72 e3 cf 3c
       -0.034135748 0.047945153 -0.03005593 0.025377009
000320 60 1a f3 3c 35 a0 24 3d 51 72 c4 bc ce f7 b0 bd
       0.029675663 0.040191848 -0.023980292 -0.08641015
000330 9e 1a fb bc 9c e3 cd bb 74 f8 80 3d f5 38 4c 39
       -0.03065234 -0.0062832367 0.06297389 0.00019476174
000340 f5 f7 98 3c 56 93 bd 3c 7c a9 34 3c be 43 41 3d
       0.018672923 0.023141544 0.011026736 0.047183745
000350 57 fd 84 3c 7c e5 e9 b6 3f b3 95 bd 16 73 0f 3c
       0.016234083 -6.9706566e-06 -0.07309579 0.008755466
000360 82 04 3a 3d dd 3f 0e bd c2 91 79 3c c7 b7 eb 3c
       0.045414455 -0.034728874 0.015232505 0.028774155
000370 f0 e0 e2 bb b9 5c b1 3b b3 a3 98 3c 25 79 5e 3d
       -0.0069237873 0.0054126647 0.018632745 0.05431475
000380 44 6c da 3b 79 b1 23 ba 6d 06 04 3c b5 06 34 3b
       0.0066657383 -0.0006244402 0.008058173 0.0027469818
000390 d6 de 10 3c e9 7d af bb a0 fb bc bc a6 38 d3 3c
       0.008842191 -0.005355586 -0.023069203 0.025783848
0003a0 92 ef d5 bc 40 42 d7 bc 77 10 19 3d ae 99 27 bc
       -0.026115213 -0.026276708 0.037369218 -0.010229511
0003b0 73 74 48 3d 5a 4e 48 3c b7 f2 90 3c 8f 00 08 bd
       0.04893918 0.012225712 0.01769386 -0.033203658
0003c0 68 10 a6 3c 41 8e e2 3a ac 5e 6e bc 8d a6 25 3c
       0.020271495 0.0017284827 -0.014548939 0.01011051
0003d0 50 cd bf bc 64 af 2e bd 78 8f f0 3c 8a 2e 41 bc
       -0.02341333 -0.042647734 0.029365286 -0.011790881
0003e0 65 62 69 3c 6f 22 2b bd 40 f1 29 3c db 47 83 bc
       0.0142446505 -0.041780885 0.01037246 -0.016025474
0003f0 d3 1d 95 3c 79 3d 5a bc 4c fa 67 3a 48 2a 54 39
       0.018202698 -0.01332032 0.0008849248 0.00020233647

action_model._discrete_distribution.branches.1.bias f4 [3]
000000 64 2f 22 bd 03 68 b4 3c 05 8f 94 3c
       -0.039595976 0.022022253 0.018134603

action_model._discrete_distribution.branches.1.weight f4 [3, 256]
000000 79 97 b6 3c 1a aa 7e 3c 41 dd 4c 3c 95 25 83 bd
       0.022289025 0.015543485 0.012503923 -0.064036526
000010 58 ac 16 bd 2e 3b b8 bd 9e 93 01 be 06 99 4d bd
       -0.036785454 -0.08995663 -0.12653968 -0.050194763
000020 52 00 36 bd 99 a1 e7 bc 98 2a 85 bd d5 e1 1c bc
       -0.0444339 -0.028275298 -0.06502265 -0.009575327
000030 a9 b3 c7 bd c3 f2 c6 3b e3 07 a1 bc c1 9b 1d ba
       -0.09751064 0.00607142 -0.019657081 -0.0006012284
000040 6a ee a6 3c 35 ea c0 bd c8 c6 b5 3b 03 71 06 3b
       0.020377357 -0.094196714 0.005547378 0.0020514138
000050 f7 c8 09 bd 7f 1c d7 bb 9c a3 36 ba 49 31 92 bc
       -0.03363892 -0.0065646763 -0.0006967129 -0.017845767
000060 d4 48 51 bc ad c7 61 bc 03 3a bf bc dd a4 2d 3c
       -0.012773711 -0.013780517 -0.023343092 0.0105983885
000070 91 af fa bc c7 94 c4 bd 48 ed 71 bd cc fe 0b bd
       -0.030601295 -0.095986895 -0.05906418 -0.03417854
000080 2c cd 13 bd 91 a5 c5 bd c8 82 71 3c f0 a3 34 bd
       -0.03608434 -0.0965072 0.014740653 -0.044101655
000090 d0 43 01 be e4 5e c9 bd ac 2c ce 3c f4 23 5d 3c
       -0.12623525 -0.09832552 0.025167786 0.013497341
0000a0 dd b5 4a bd 98 01 cc bd 58 30 0c bc cc a8 aa bd
       -0.049489845 -0.099612415 -0.008556448 -0.08332977
0000b0 a8 f0 11 bd a3 dd af bd 56 5d 6f bc dc e2 ee bc
       -0.0356299 -0.08587196 -0.014609655 -0.02916091
0000c0 d1 76 e0 bc 73 17 64 bd 9b e9 b2 bd 8c 34 77 bb
       -0.027400406 -0.055686425 -0.08735963 -0.003772053
0000d0 59 0c 3f bc f9 b3 46 3c 44 f4 91 bc 99 5b 49 bd
       -0.011660659 0.01212787 -0.01781667 -0.04915962
0000e0 97 3c 79 3c a3 8b b0 3b b5 0c be bd 06 4f 19 3c
       0.0152122 0.0053877397 -0.092797674 0.00935722
0000f0 bd f0 cb bd 81 64 bb 3c 56 ac fe bb 9b e8 ef bc
       -0.099580266 0.022875072 -0.007772009 -0.02928572
000100 95 ea 89 bd 9c c6 cb bd 0d af 9a b9 16 14 9f ba
       -0.06734196 -0.09949991 -0.00029503592 -0.0012136723
000110 53 07 00 bc 8d 51 40 bd 60 dd c5 bd d1 f4 51 bd
       -0.007814246 -0.046952773 -0.096613646 -0.051258866
000120 7d 59 da 3c 2a 2a ae 3c c5 5b a0 3b f7 ab 00 bd
       0.026654 0.02126034 0.0048937523 -0.031414
000130 38 80 e2 bb 4f 6e 9a 3c 26 41 6d bd 28 07 08 bc
       -0.0069122575 0.018851427 -0.05792346 -0.008302487
000140 52 50 1b bc ca fd 0d bd d0 aa 49 bd d1 5a 02 bd
       -0.009479599 -0.03466586 -0.049235165 -0.03182489
000150 67 f6 a9 bd df 53 67 bc f5 b4 cf bc 99 65 77 3b
       -0.08298951 -0.0141191175 -0.025354842 0.0037749766
000160 36 c6 be bc 82 1a 0c be 95 b6 59 bc e2 99 94 bd
       -0.023287874 -0.13681987 -0.01328816 -0.07255913
000170 34 c7 90 bd d5 f7 53 bd 4a 78 ec bb 16 f4 76 bc
       -0.07069245 -0.051750023 -0.007216488 -0.015072843
000180 31 ee 50 bc f5 0f cd bd 57 7e 8c bc be 0f 26 3c
       -0.012752102 -0.10012809 -0.017150087 0.010135589
000190 67 63 be bd 6c 96 15 bc 49 79 27 bd 1a e6 11 be
       -0.09296303 -0.009130102 -0.04088715 -0.14247933
0001a0 68 6a cc bd 43 52 33 3c 7f 18 0c be d3 21 8a bd
       -0.09981233 0.010944906 -0.1368122 -0.06744733
0001b0 63 e5 ce 3b ae a8 d6 bd 4b 1e 1f be 12 8f 16 3c
       0.006313966 -0.10481392 -0.155389 0.009189384
0001c0 03 ff 23 39 3f c3 5f bd a5 ed 8a 3c b6 63 d5 bd
       0.0001563989 -0.05462956 0.01695902 -0.10419409
0001d0 6a e2 70 bc 56 c6 6b bd 8c b0 5f 3c 57 9c 88 bd
       -0.014702419 -0.057562195 0.013652932 -0.066704445
0001e0 cc a0 50 3b 67 45 83 3c 02 2c 0f 3c 6b bd 0c bc
       0.0031834124 0.016024305 0.00873852 -0.008590083
0001f0 14 90 e2 bb e2 9a f6 bc 69 38 0c bc fd 37 79 bd
       -0.006914148 -0.03010315 -0.008558371 -0.06084441
000200 42 00 e5 bc 6a f4 67 bb ca 5a 1a bd 49 21 43 3b
       -0.027954224 -0.0035393485 -0.03768424 0.0029774478
000210 13 cf 2e bd 3d b5 ae bc 0a 0e d8 bd 18 36 d5 bb
       -0.04267795 -0.021326656 -0.10549553 -0.0065066926
000220 33 20 2c bc 70 bf 15 bd 1d 21 75 bb aa e5 38 bb
       -0.010505724 -0.036559522 -0.003740377 -0.0028213062
000230 17 8a ac 3b db b8 9a bd a0 98 71 bd 28 6a 1b bd
       0.005265485 -0.0755479 -0.058983445 -0.037943035
000240 87 2c 66 3c 56 c8 60 bd 54 4e 98 3c 49 8e a9 3c
       0.014048702 -0.054878555 0.018592037 0.02069773
000250 1a 82 b0 3c 64 fc 62 bd 2f 08 25 be b3 43 5a bd
       0.021546412 -0.05541648 -0.16116403 -0.05328722
000260 4d f5 0e bd d5 03 9d 3c 67 c9 3b bd b6 d5 c5 bc
       -0.034901906 0.019166866 -0.04584637 -0.024149757
000270 42 9e c8 bd 93 de 29 3c 6b 9e 45 bd 3d 80 02 bb
       -0.0979581 0.010368007 -0.048246782 -0.0019912862
000280 bb 49 22 bc 52 72 88 3c d8 de ee bd 6c bc 97 bd
       -0.009905274 0.016656075 -0.11663598 -0.074089855
000290 84 79 cb bd f6 6c 95 3c 28 28 fe bc 14 7f cc bc
       -0.09935287 0.018240433 -0.031025007 -0.02496294
0002a0 6c 53 68 bc 0f cd 02 be 39 17 d2 3b 15 01 45 3d
       -0.014180046 -0.12773536 0.0064114598 0.048096735
0002b0 c7 be 03 bd c8 3b 02 bd 4a 6c 20 bc e3 59 72 3c
       -0.03216436 -0.031795293 -0.009791443 0.0147919385
0002c0 e8 26 26 bd cc 06 d2 bc 24 4e b1 bc 30 95 49 bc
       -0.040564448 -0.025638007 -0.021643706 -0.0123036355
0002d0 98 61 b2 bd 5f d0 a2 3c 94 92 35 bb d0 9c 91 bc
       -0.08710021 0.01987475 -0.0027705776 -0.01777497
0002e0 4b 05 6f bd f9 6e 9e ba 62 08 f0 3b 16 ac e7 bd
       -0.058354657 -0.0012087516 0.007325218 -0.1131212
0002f0 ed 65 5b 3b 7e 62 02 bd 20 ce ce bc 2e 1d 67 bd
       0.00334775 -0.03183221 -0.025244772 -0.056424312
000300 20 26 b7 3b bc 45 26 3d bb fc 79 ba 16 e9 34 bb
       0.0055892617 0.040593848 -0.0009536256 -0.002760475
000310 9a c2 4f bd e2 20 33 bd 45 fb 46 3c de 48 57 3b
       -0.050722696 -0.04373253 0.012144868 0.0032849829
000320 54 25 10 bc c0 93 8b bd 07 40 cd bd 00 0a 0b bd
       -0.008797962 -0.068152905 -0.10021978 -0.033945084
000330 c5 39 91 bd 0f 8c a0 ba 38 dd 9c bc 39 6b 0b be
       -0.07091097 -0.0012248772 -0.019148454 -0.13615121
000340 45 87 e8 bd b1 ce f1 3b 10 f4 98 bd f1 3e 9a bc
       -0.113539256 0.007379376 -0.07468426 -0.01882884
000350 c4 e4 0f be e9 9d af 3a 8b d4 8a 3c ec 0f 08 be
       -0.14052111 0.0013398501 0.016947052 -0.13287324
000360 67 c9 8e 3b de f0 c1 3c f1 f1 e8 bd 7a b8 7f 3c
       0.004357505 0.023674425 -0.11374272 0.0156079475
000370 32 cb ac bd 42 b4 34 bd 88 d1 4f 3c c4 74 ae bb
       -0.08437194 -0.04411722 0.0126842335 -0.005323978
000380 db d3 ff 3a 71 95 7c 3c a3 9c 9b bd 9b 8a 61 bd
       0.0019518094 0.015416489 -0.075982355 -0.055063825
000390 4d 97 9a bb 27 c6 a4 bd 93 41 be bd 65 47 f1 bd
       -0.0047177435 -0.08045607 -0.09289851 -0.117811956
0003a0 b2 10 14 bc 42 00 8b bd 6f a7 b3 bd 2e 4f 9d 3b
       -0.009037184 -0.067871585 -0.0877217 0.0048006987
0003b0 d5 77 9c ba ef 2f 30 bc 8c cc 86 bd 71 ae 18 bc
       -0.0011937568 -0.010753616 -0.06581983 -0.009318934
0003c0 49 12 ff bd 33 bf b9 bc 3d 24 d9 3b 0a 6a d4 bd
       -0.124546595 -0.022674179 0.0066266344 -0.10371788
0003d0 ae 8b c2 bc 25 9b 09 3d 19 b4 64 bc 9d a5 6a bd
       -0.023748245 0.033595223 -0.013958954 -0.057286847
0003e0 7e 9c d5 bd 00 4b 16 bd 11 ff 28 bd cb 3a 72 bd
       -0.10430239 -0.03669262 -0.041258875 -0.0591381
0003f0 98 1c 01 ba 6e 6f e3 bc d1 a3 17 3b af 4c d1 bd
       -0.000492522 -0.027763095 0.0023138414 -0.10219704

action_model._discrete_distribution.branches.2.bias f4 [2]
000000 55 d2 a8 3a 81 d0 a8 ba
       0.0012880067 -0.0012879522

action_model._discrete_distribution.branches.2.weight f4 [2, 256]
000000 60 b7 8b bb 39 af cd 3b f8 3f 60 bc 7c 4f a0 bd
       -0.0042638034 0.0062769917 -0.013687126 -0.078276604
000010 93 b4 75 bc cd ac 4d bd 6e 00 bf bc c4 5b 93 bc
       -0.0149966655 -0.050213624 -0.023315635 -0.017988093
000020 21 74 b2 bc af ed ed 3c 99 15 bf 3c 90 d8 f7 bb
       -0.02178389 0.029044 0.023325728 -0.007563658
000030 a3 ed 82 bc 6d eb cc 3c cb eb 67 3c 08 e6 82 bc
       -0.015982455 0.025014604 0.0141553385 -0.015978828
000040 96 5f 40 bc 51 3f f6 3c cc 10 b4 bd 75 5f 0f 3d
       -0.011741539 0.030059488 -0.08792266 0.035003144
000050 6e 68 c7 bc 77 94 6a bc 84 e3 6a 3b 16 76 8d 3b
       -0.024341788 -0.014317623 0.0035841176 0.0043170555
000060 12 95 47 3c 05 8b 53 3c 5f 7d 48 bc 77 9c d4 bc
       0.012181537 0.012911563 -0.012236922 -0.025953515
000070 ac 66 c2 bb 5a 47 23 3d 88 d6 42 3d bd 22 72 3d
       -0.0059326496 0.039862968 0.047567874 0.05911516
000080 cf ba 81 bd 32 26 97 bb 20 5b 26 bc 10 f5 1c 3d
       -0.06334459 -0.0046127075 -0.010153562 0.038319647
000090 1c ae 15 bb 28 b7 7a bc 62 f3 9f 3c f4 6e ce 3c
       -0.0022839373 -0.015302457 0.019525234 0.025199391
0000a0 45 c4 46 bc 36 fc 8a bd ee 44 9b 3c 90 d8 2a 3c
       -0.012131755 -0.06786387 0.018953767 0.010427609
0000b0 44 8d 57 3c a4 f6 eb bc c8 2d be bc b2 3c 83 3b
       0.013156239 -0.02880413 -0.02321519 0.004005038
0000c0 e6 38 87 3b 07 21 1c bd d3 59 f6 3b 0c 24 a9 bc
       0.004126656 -0.038117435 0.007518032 -0.020647071
0000d0 39 e8 d8 bc 80 22 99 3c 5b 8d 54 3c 2f d6 92 bd
       -0.02647792 0.018693209 0.012973155 -0.071697585
0000e0 8f 81 b5 3b ee 69 ff 3a 59 fd 65 bc e6 db 2f bd
       0.005539126 0.0019486526 -0.014037454 -0.04293432
0000f0 f6 27 a8 3c 7e ba a0 3c 96 7e 10 3c 31 98 e3 bc
       0.020526867 0.019620176 0.008819243 -0.027782531
000100 3c 34 b8 3c 6e 76 42 bd fe 91 2a bc df ed 2f 3c
       0.022485845 -0.047476225 -0.010410784 0.010737865
000110 9b e2 20 3c d8 3b f0 bb 0c 48 d7 3b 31 e1 27 3d
       0.009819652 -0.0073313527 0.006569868 0.040986244
000120 2f db 47 3c 25 1f 0c 3c 5c 30 f9 3c 9f a1 4e 3d
       0.012198254 0.008552347 0.030418567 0.050447103
000130 58 bf 3c bb 46 63 9f 3a e1 d9 ab 3c ed b9 dc 3d
       -0.0028800573 0.0012160323 0.020977916 0.1077765
000140 53 be 23 bd 0e f3 93 bc ba 07 90 bc f3 17 dc 3c
       -0.03997643 -0.018060233 -0.01758181 0.026866889
000150 92 8f 1d 3c 61 11 21 bb 25 07 9a 3c 6d 15 9b 3c
       0.009616749 -0.002457701 0.018802235 0.018931115
000160 b8 c4 a0 3c 96 e1 5a bd 3c 5c 25 3c 37 96 a3 3b
       0.019625053 -0.05343779 0.010092791 0.0049922722
000170 bd fc 4b bb 19 38 a6 bc 0b be 90 bc 8a 6d 66 bc
       -0.0031125986 -0.020290421 -0.017668745 -0.014064202
000180 9a 6f 27 bd 03 a9 99 3c 5d 6c d2 3c 6a 17 eb 3c
       -0.040877916 0.018757349 0.025686437 0.028697688
000190 71 85 45 3b 21 df 2a 3c b7 45 a4 bc 8b 3f 2e bb
       0.0030139352 0.010429175 -0.020052774 -0.0026588168
0001a0 e0 1a 9c bc 4e ca fd 3c f4 22 e7 39 ce 0a 31 3d
       -0.019055784 0.030980255 0.00044085796 0.043223195
0001b0 3a 1f 26 3b 7d cc a9 3c 7d 6c 91 3c d7 c2 a3 bc
       0.0025348202 0.02072739 0.017751927 -0.019990368
0001c0 32 52 c3 3c 78 52 40 b8 cd c1 17 3d b8 1a 8a bd
       0.023842905 -4.5853172e-05 0.037050057 -0.067433774
0001d0 f1 76 16 3c 69 d3 3e 3c cc 2b 2a 3c f7 85 e7 3b
       0.009183631 0.011647084 0.010386419 0.0070655304
0001e0 e7 6d e8 bb 40 bc 0f bc 15 78 7e bc a0 47 ac ba
       -0.0070931795 -0.00877291 -0.0155315595 -0.0013143905
0001f0 91 5a 39 bc fc 71 05 3d 51 98 67 3c 50 4b 55 bd
       -0.011313097 0.032579407 0.014135436 -0.052073777
000200 7f 4a c3 ba 73 09 c4 3b 4f bc 5f bc 82 cd f3 3b
       -0.0014899521 0.0059825717 -0.013655736 0.00744027
000210 d4 4f 62 3d 62 ca bb 3c 0c 22 f6 bb db 1a 07 3c
       0.05525191 0.022923652 -0.007511383 0.008246149
000220 ec 57 06 3c cf 86 a7 3b c5 f2 0c bc 3e 88 5b bc
       0.008199673 0.005112506 -0.008602803 -0.013399182
000230 45 27 75 3d 58 af 8c bb b5 4d 4b bc 9b 72 18 3d
       0.059851903 -0.0042933635 -0.0124086635 0.03721867
000240 bf fe 68 3d da e3 24 bd b8 c7 7d 3d 82 03 b7 3d
       0.05688357 -0.04025636 0.061958045 0.08936216
000250 51 fd 2b 3d 8b 9a 0d bd 71 4d a7 ba 0a 02 1b bd
       0.04198963 -0.03457121 -0.0012764168 -0.03784374
000260 67 73 3a 3c 05 b3 82 3c 9a 7e 2f 3d b8 4c 06 3b
       0.011380053 0.015954504 0.042845346 0.0020492505
000270 35 8e 97 bc 85 7f e8 3c 25 d8 4b 3c e1 62 c1 bb
       -0.018500427 0.028381119 0.01244167 -0.00590168
000280 20 29 f1 3c e0 6a d3 3b 81 45 ba bc 78 59 06 3d
       0.029438555 0.0064519495 -0.02273822 0.032800168
000290 e9 9c c7 bc bb d3 3f 3b f0 90 96 3c e9 f2 04 bc
       -0.024366813 0.0029270488 0.018379658 -0.008114555
0002a0 38 bd dd ba 11 80 11 bc 8e 3a 79 3c 99 f0 4e bb
       -0.0016917353 -0.008880631 0.015211714 -0.0031576513
0002b0 7d 0c 42 3d 1b 15 df 3b 82 a3 06 bc 15 c8 93 3c
       0.04737519 0.006807936 -0.008217694 0.018039742
0002c0 c3 1f 09 bd ea 15 67 bd c4 cc 04 3d a3 8c 7e bd
       -0.033477556 -0.056417383 0.032421842 -0.06214584
0002d0 4e e8 21 bd d1 d4 83 3c 49 68 88 3c 26 17 3d 3c
       -0.039528184 0.01609269 0.01665129 0.011541164
0002e0 b5 f3 39 3d 96 9f d2 3c 6e 1a 08 bc 39 af 6d bd
       0.045398433 0.025710862 -0.008307083 -0.058028433
0002f0 b3 2d 2c 3c 69 5d 05 3d 8c fe a1 bc 4a a8 eb 3b
       0.010508942 0.032559786 -0.019774698 0.0071916925
000300 14 a6 e8 bb cb 79 03 bc 4b b9 31 bc 80 10 c4 3d
       -0.007099876 -0.008024643 -0.0108474 0.095734596
000310 ef 8e 90 3c 6c 3b 3a 3d 1e 3f 46 bb ea e4 b4 bb
       0.017646281 0.045466825 -0.0030250023 -0.0055204527
000320 16 15 d3 bb d0 9e 31 bd e3 96 0a 3c 53 a0 a4 3d
       -0.0064417226 -0.043364346 0.008458826 0.08038392
000330 bc 86 a5 bc 2b 89 5c 3c c8 0d 1a bc 48 df 93 bc
       -0.020205848 0.013460438 -0.0094027 -0.018050805
000340 a6 77 f2 3b fb f2 71 3c 92 fa 3b 3d 6c f5 c9 bc
       0.007399517 0.014767404 0.04589326 -0.02465316
000350 ac b6 65 bc 67 b1 87 bb b2 7f 01 3d b0 07 8e 38
       -0.014020603 -0.004141021 0.03161592 6.7725196e-05
000360 ef 20 14 3d cc aa 48 3c fa b9 de bb d6 3a 67 3d
       0.03616422 0.012247752 -0.0067970725 0.056452595
000370 6c 2e 5e 3b 06 96 10 3d c1 a3 5d 3c 19 48 b5 bc
       0.0033902181 0.035299323 0.0135278115 -0.022129105
000380 1c a5 2e bd 1c 93 05 3d ae 71 34 3c 1e 52 57 3a
       -0.04263793 0.032610998 0.0110134315 0.00082138355
000390 50 9e ad bb 56 5d ae bc 7d a5 2b bc a0 9b 81 bc
       -0.0052984133 -0.02128474 -0.010476467 -0.015821278
0003a0 c8 ee 12 3d 26 b7 d0 ba 25 ed 2a bd 6d 51 8a bc
       0.03587225 -0.0015923723 -0.041730065 -0.01688453
0003b0 65 37 3f 3c df 5f da bc 58 14 c6 bb 91 2b 39 3d
       0.011670922 -0.026657043 -0.0060449056 0.045207564
0003c0 e7 6a 0a bd ca 15 b2 3b d8 8b 02 39 86 52 27 38
       -0.033793356 0.0054347264 0.00012449862 3.989276e-05
0003d0 38 6e 07 3d 69 fd a4 3d a5 4d 93 bc 02 5b 3d 3c
       0.033064097 0.08056147 -0.01798136 0.0115573425
0003e0 0b 3a 3e bc da 13 8a 3c 8f 0e 62 bc 5c 71 12 ba
       -0.011610518 0.01685517 -0.013797416 -0.000558635
0003f0 91 e0 1c 3c f7 27 78 3c 11 db 3b 3a c8 47 e7 3c
       0.009575025 0.015146247 0.00071661273 0.02823247

discrete_action_output_shape f4 [1, 3]
000000 00 00 40 40 00 00 40 40 00 00 00 40
       3.0 3.0 2.0

network_body._body_endoder.seq_layers.0.bias f4 [256]
000000 b9 9c b1 3c a5 9d 35 bc 97 31 16 3d 6b 48 15 bd
       0.021681176 -0.011084949 0.036668386 -0.036446016
000010 4c 0f 60 ba 3b ba f3 bc 0a 27 54 3c ab 7c 82 bb
       -0.0008547201 -0.029751888 0.012948761 -0.0039821467
000020 63 bc 99 bc 4b 6e e1 bb 3a b2 6c 3c e1 cc e8 bc
       -0.018766588 -0.006879603 0.014446789 -0.028418006
000030 4f d2 00 3d 48 17 75 bb b0 dd 09 bd 4d 6f 04 3b
       0.031450566 -0.003739791 -0.033658683 0.0020207942
000040 ae 84 37 bd 70 54 21 bc 5d 53 67 bc ca a3 dd 39
       -0.044804268 -0.009846792 -0.014118996 0.00042274437
000050 9d c8 24 bc 93 30 dd ba ef 89 2c 3d ba 16 8a bc
       -0.010057596 -0.0016875438 0.04212373 -0.01685654
000060 79 cf 30 3c 76 84 92 3b 94 8b 83 bc 1c a0 0f 3c
       0.010791653 0.004471357 -0.016057767 0.0087662
000070 22 41 5c bc 1b 6c a1 3a 01 a1 20 bd bf 83 33 bc
       -0.013443263 0.0012315543 -0.039216045 -0.010956704
000080 b5 0e 47 bb 94 0a b0 3c 58 34 03 bb d4 44 d8 bc
       -0.0030373756 0.021489419 -0.0020020213 -0.026400007
000090 f7 20 fb 3b 71 a7 a4 bc 46 fa ad 3c 45 4f e0 3c
       0.007663842 -0.020099374 0.021237504 0.027381549
0000a0 8d 2a 69 3c c9 56 ae bc aa 18 1a 3d ff 57 48 3c
       0.014231336 -0.021281617 0.037621178 0.012228011
0000b0 8c 84 6e bc 70 0f ba 3c 17 f6 21 3c d8 79 cd 3b
       -0.014557969 0.02271244 0.009885333 0.0062706284
0000c0 cf 52 5f 3c 89 71 13 bd c4 49 c9 3c 57 f7 49 ba
       0.013630583 -0.035996947 0.024571307 -0.0007704398
0000d0 f1 d6 62 3c e9 ca 6e bb 8b ac 20 bd 6d 03 0c 3d
       0.013845191 -0.0036436862 -0.03922705 0.034182955
0000e0 17 2c d7 ba a1 17 01 bc c3 d2 4e 3d 08 a1 d7 3c
       -0.0016416338 -0.007879169 0.050493967 0.026321903
0000f0 3b 63 2b 3c 3a 1c b1 3c 82 e0 9a bc ff 81 1e bc
       0.01046067 0.021619905 -0.018905882 -0.009674548
000100 3e c7 05 bd 73 33 ec bc e5 cc 81 bc 64 32 c3 bc
       -0.032660715 -0.028833127 -0.015844772 -0.023827739
000110 e1 c5 85 bb e5 fc e6 3c 82 41 44 bc 55 ce 98 bb
       -0.004082427 0.028196761 -0.011978509 -0.0046632686
000120 f5 2b 9a bc 1e c8 27 3c f9 d3 6f bc 4a dc 13 bc
       -0.018819788 0.010240583 -0.014637941 -0.009024689
000130 52 8d 27 3c db 7c 93 3c f0 93 cb 3a b8 a7 e0 3c
       0.0102265645 0.018003872 0.001553176 0.027423725
000140 1a d5 8e 3c 40 38 32 3c 6e 03 42 bd 7a bb 7f bc
       0.0174356 0.010877669 -0.047366552 -0.015608663
000150 29 3a ef 3c d2 d9 e6 ba 69 13 a6 3b 02 ad ae bc
       0.029202538 -0.0017612523 0.005068232 -0.02132273
000160 c7 f0 1b 3d a8 b7 89 b7 7e 2d ef bb 69 c7 95 3c
       0.03807142 -1.6417194e-05 -0.0072991243 0.018283563
000170 d8 70 31 3d f9 26 2b 3c d3 f9 d8 39 e8 6b 35 3c
       0.043320507 0.0104463035 0.00041384864 0.01107309
000180 46 07 b1 b8 5c 9a 84 3c df 9d 0a 3d f6 fb a8 38
       -8.4413725e-05 0.016186886 0.033841964 8.057796e-05
000190 4b 01 ee bc b0 e0 15 bd 3e 8c c5 3c 0b 69 4b bc
       -0.02905335 -0.03659123 0.024114724 -0.012415181
0001a0 00 e6 7c 3d 11 ed 52 3c d9 48 cf 3b df 72 25 bd
       0.061742783 0.012873904 0.006325823 -0.040392753
0001b0 be d5 b7 bb a3 7c 84 3c 5e f8 b6 3c 05 c2 d4 3b
       -0.005610197 0.016172713 0.022335228 0.0064928555
0001c0 82 cd 95 3b 7c 24 35 bb fa e4 e6 bb 1d 06 cc 3c
       0.0045716176 -0.0027640155 -0.007046339 0.024905259
0001d0 40 ee 69 3a 64 15 88 3c a3 55 fc ba d1 56 0f 3c
       0.00089237466 0.016611762 -0.0019251596 0.008748726
0001e0 be 64 73 3c 58 c0 b3 3c 87 11 04 3d 60 9e a3 bc
       0.014855562 0.021942303 0.032243278 -0.01997298
0001f0 d9 ab 08 3d 18 30 33 3d 1c 5a c9 3b 37 36 eb 3b
       0.03336701 0.043747038 0.006144775 0.007178094
000200 23 de 42 bc 06 31 f7 3b e2 6e 83 3d 7e 98 32 bd
       -0.011893782 0.007543686 0.064176336 -0.04360246
000210 e2 d7 4c bc 4f 1a 0a 3d 9b 12 5f bc bb 53 cc 3b
       -0.012502642 0.033716496 -0.013615276 0.0062355674
000220 7e f7 18 bd 57 58 2e bc a1 dd 64 bb 78 66 75 3c
       -0.037345402 -0.010641179 -0.003492214 0.014978044
000230 a6 b3 2e bd 23 01 cd 3b 28 ff 4a 3a 8e 47 6e 3c
       -0.042651795 0.006256239 0.000774371 0.014543427
000240 6c d5 a1 bb 51 2b a4 3b bc 5a e2 3c 7a fb 9c 3c
       -0.004938772 0.0050100465 0.027631156 0.019162882
000250 98 b2 01 3d 7c f4 e3 bb f7 c4 34 ba 00 29 8d bb
       0.03166446 -0.006956635 -0.0006895805 -0.004307866
000260 96 c1 46 bc 94 30 62 3c 8e 29 33 3c 64 95 f3 bb
       -0.012131115 0.013805527 0.0109352 -0.0074335802
000270 57 a2 93 3c b1 a9 5c bb df 2f 9a 3c 5c 58 5f 3a
       0.018021746 -0.003367048 0.018821655 0.00085199415
000280 a6 d3 12 bd 7a d6 c4 bc 7b be 57 3c da b4 19 3d
       -0.035846375 -0.024028052 0.013167973 0.03752599
000290 11 22 a0 bb bf c7 06 bd 32 f4 ce 3c 30 1d ac 3b
       -0.0048868735 -0.032905336 0.025262926 0.005252503
0002a0 70 85 b7 ba 74 9f 11 3d 9d df 96 bc 99 ee fd 3c
       -0.001400156 0.035552457 -0.018417174 0.030997561
0002b0 13 0f 0d 3d a0 f9 49 bc 3e 27 ed 3a 90 ad 29 bc
       0.034438204 -0.012327582 0.001809336 -0.010356322
0002c0 41 d7 92 bc 3c 1e cb bb f8 27 86 bb cc fe be 3c
       -0.017924907 -0.0061986726 -0.00409412 0.023314856
0002d0 b1 e1 b5 3c 2c 1f 92 3c e2 df 14 3d 32 34 77 3c
       0.022202345 0.01783713 0.036346324 0.015088128
0002e0 53 59 d6 ba 91 6b ca bc 7f 2c a1 bc e6 fc c4 bc
       -0.0016353525 -0.024709495 -0.019674538 -0.024046373
0002f0 0b d2 32 bd ab 7c 04 3d 21 91 92 3c e2 43 c0 ba
       -0.043657344 0.032345455 0.017891468 -0.0014668668
000300 7b e5 01 3d b1 a8 00 bd ef fe c8 3c 37 ea 70 3c
       0.03171299 -0.031410877 0.024535624 0.014704279
000310 bb 74 75 3c ea e4 cd ba f0 f3 b1 3b 97 8d b3 3c
       0.014981444 -0.001570848 0.005430691 0.021918101
000320 f7 86 e1 3c 24 0b 8b 3d 61 15 cc ba d2 10 bf bb
       0.027530177 0.06789234 -0.0015570336 -0.0058308626
000330 57 dd b4 3b c6 11 27 bc dd cf 8b bc c0 0e 9b 3c
       0.00551955 -0.010197109 -0.01706689 0.018927932
000340 3c fb 2e bc f3 e7 05 3c 4e 06 ad bc 97 8d 56 3d
       -0.010680016 0.008172977 -0.02112117 0.052381124
000350 08 f8 a8 3c 2f eb cd bc b5 c1 8d 3c 93 16 52 bc
       0.020626083 -0.025136558 0.01730428 -0.012822765
000360 86 ca c9 3c ff d4 2c bd 42 20 e1 3c 97 60 07 bb
       0.024632704 -0.042195316 0.027481202 -0.0020656937
000370 a1 83 40 3c 8d d7 e0 3b 22 59 b3 3b 2c 93 45 bc
       0.011750133 0.006861633 0.005473272 -0.012059014
000380 f8 17 32 3d 47 a8 23 3c d6 90 13 bd 35 4d 2d 3c
       0.04347989 0.009988851 -0.0360268 0.01057749
000390 2d ba b9 3c 13 02 15 ba 02 3a 1b 3d 65 62 d0 3c
       0.022671783 -0.0005684208 0.037897117 0.025437543
0003a0 34 a9 0d 3d 72 99 b0 3c 84 0a 29 3d 69 05 42 3c
       0.034585193 0.021557543 0.041269794 0.01184211
0003b0 43 d3 13 3c 91 ce d1 3c 0c a8 1c 3d ca 09 ba bc
       0.009022537 0.025611194 0.0382462 -0.022709746
0003c0 d0 14 b5 bc 18 fa 64 3d 1e aa 2e 3b 17 d0 87 bb
       -0.02210465 0.05590257 0.002665169 -0.0041446793
0003d0 24 9e 0c 3d 90 3f a9 bc 74 29 17 bd 6c 9c 59 3d
       0.034330502 -0.020660192 -0.036904767 0.05312769
0003e0 4a 6d 21 3b 5d 19 30 3b 47 e2 4d bc a5 03 4f 3d
       0.0024631792 0.0026870586 -0.012566156 0.050540585
0003f0 63 56 4d 3b b6 28 16 bd e3 5f 2e 3d cf 6c 04 3d
       0.0031332008 -0.03665992 0.042571913 0.03233033

network_body._body_endoder.seq_layers.0.weight f4 [256, 90]
000000 08 40 1b bb 02 b6 b6 3d 2e 63 28 3e 5c fb 41 bd
       -0.0023689289 0.08921434 0.16444084 -0.047358856
000010 50 71 68 3e 78 f4 14 be 63 e2 15 3e 99 5d 1b 3d
       0.22699475 -0.14546382 0.14637141 0.03793106
000020 ee 06 2e 3e b7 8a 41 3e 96 6f d3 3d 7f 52 19 bd
       0.16994831 0.18900572 0.10324018 -0.03743219
000030 d7 25 78 3d e7 43 8f bd 27 25 16 3e 58 4a 36 3d
       0.060582962 -0.06995373 0.1466261 0.044504493
000040 a8 37 52 3d 2e c7 12 be 7c f8 d6 3d 7a 46 11 be
       0.05132261 -0.14333794 0.104966134 -0.14187041
000050 fd d3 fa 3d fa 5f 0e 3d 4a a5 8d be d9 40 4e bc
       0.12247465 0.0347595 -0.27665168 -0.012588703
000060 9f 33 80 3c d8 0b fd 3d 32 79 d3 3d 6b 6e 3c be
       0.015649615 0.12355775 0.103258505 -0.18401496
000070 fb ec 04 3e 8b eb 4a 3c 00 20 4c 3e 51 5a 7c 3c
       0.12981026 0.012385259 0.19934082 0.0154023925
000080 4f 71 8f 3d 76 54 97 bd e3 a8 19 bd 4b 92 01 3e
       0.07004034 -0.073891565 -0.03751458 0.12653463
000090 3e 25 9a bd dd c6 93 3d da a4 88 3d e8 91 10 be
       -0.07526635 0.072156645 0.06672068 -0.14118159
0000a0 11 35 f2 3d 21 28 a9 bc 22 0d b8 bd 5b 3e 7b 3e
       0.11826528 -0.020649018 -0.0898688 0.24535505
0000b0 34 2c 2f bd a4 29 eb bc c8 1c 2b be f0 02 e1 3d
       -0.042766765 -0.02870638 -0.16710198 0.109868884
0000c0 d5 cf 55 be cf 0c 80 bd c2 b7 00 be ec 8f 97 3c
       -0.20880063 -0.06252443 -0.12570098 0.018501244
0000d0 7a 2c c9 3d fa 08 ea bd f7 af a1 bd d1 ed 7d 3d
       0.09822936 -0.114274934 -0.07894891 0.061994378
0000e0 b7 5e f6 bd 76 d6 2b 3c 18 a7 b3 bc 0c e2 b3 3e
       -0.12029784 0.010488143 -0.021930262 0.35133398
0000f0 42 b4 08 be 87 5e 31 3b 4c 3a 86 bd 2b 97 f8 3d
       -0.13350013 0.00270644 -0.06554088 0.12138208
000100 02 35 f7 bd aa f8 5e bd ed 9e 55 3e 2d bf 96 3d
       -0.12070657 -0.054436363 0.20861407 0.07360683
000110 c7 db af 3d 6d 59 26 3e 93 fb 16 3b 34 c1 11 3e
       0.08586841 0.1624505 0.0023038134 0.14233857
000120 62 c2 5e be dc c8 22 3c f0 97 a6 bd 0f f6 c7 3d
       -0.21753839 0.009935584 -0.081344485 0.09763729
000130 9b 28 17 be 78 87 20 bd b1 ae cd bc 04 f0 05 bf
       -0.14761584 -0.039191693 -0.025107713 -0.5231936
000140 b9 5f bc bb 55 14 83 3d b9 2f cf bd 9e be e1 3e
       -0.0057487157 0.064003624 -0.10116524 0.44090742
000150 b0 01 70 be e8 47 cd 3d 0b e3 45 3d a8 76 4e 3e
       -0.23438144 0.10023481 0.04831223 0.20162451
000160 32 ed 13 3d 47 f9 0c be 21 0c 6e 3c e2 3e 29 3e
       0.03611488 -0.13766967 0.014529259 0.16527894
000170 c7 46 69 bd 4d 97 5a bd 1c c1 a6 3b 27 b9 85 bd
       -0.056952264 -0.053366948 0.0050889384 -0.06529456
000180 0f b9 1f 3e d5 e2 5e bd dc 5c b5 bd e4 85 01 bd
       0.15597938 -0.054415543 -0.08855602 -0.03162183
000190 63 d7 a4 bc 2a 27 87 bd 0a 5d bc 3c ef 43 db bd
       -0.020122236 -0.06599267 0.022993583 -0.10706317
0001a0 ca 91 76 bc f8 d6 dc 3d 42 64 19 be 68 7e 18 be
       -0.015049407 0.107831895 -0.14979652 -0.1489197
0001b0 f9 b0 4f bd 26 23 3c bc 8d 6c c5 bc 45 b4 30 bd
       -0.050705884 -0.011482989 -0.024099613 -0.04314067
0001c0 b1 43 3a 3e c3 db a0 bd 9e 6e 21 3e bf 88 ca bd
       0.18189885 -0.07854416 0.15764853 -0.098893635
0001d0 be e1 7f bb db 31 d5 bd ba 95 32 3e 58 72 bf 3d
       -0.0039044465 -0.104099 0.17439929 0.09347981
0001e0 b3 46 72 3d c0 f8 cb 3c 9e 03 7c 3d 5a ca 6b be
       0.059149455 0.024898887 0.061526887 -0.2302641
0001f0 ab 55 a5 bb 50 f9 36 be 23 ae 1a 3e 95 6c 0a 3d
       -0.005045613 -0.17868543 0.1510549 0.03379496
000200 1e c3 4b be 06 c5 ee bd ab 1e 06 be f0 0e 7f bc
       -0.1989865 -0.11658673 -0.13097636 -0.015567526
000210 0d 37 e6 bd 3a 24 9b 3d b7 26 f0 3d 6f d1 29 be
       -0.11240969 0.07575269 0.11726134 -0.16583799
000220 c5 8b 8e bd 28 32 d8 be c4 24 66 bd b9 85 d7 3d
       -0.06960253 -0.42225766 -0.056187406 0.105235524
000230 54 1b d4 3c e8 7c 1f be 2b 08 28 3e fd 72 77 3e
       0.025891937 -0.15574992 0.16409366 0.24164958
000240 f3 72 5a be fa 61 0d 3e 12 ce 99 3d e5 55 f0 3d
       -0.21332912 0.13806906 0.07510008 0.11735133
000250 8d ef a0 bd 43 ba 87 3c d7 f7 c3 3d bc ca c1 bd
       -0.07858191 0.016568309 0.09568756 -0.09462497
000260 df 16 f1 bd 82 49 0a be 64 e1 bf bd 2c 03 08 3e
       -0.117719404 -0.13504604 -0.09369162 0.1328246
000270 02 29 9a bd 23 06 c2 3d 2c d8 3a 3e 25 21 f8 bd
       -0.07527353 0.09473827 0.18246526 -0.12115697
000280 02 eb 7a bd a0 fd e9 bd bf 0b 60 3e 8d fb 2a bd
       -0.061259277 -0.11425328 0.21879481 -0.041743804
000290 75 77 ab 3c 58 6f c1 bd bf 57 c4 bd 09 0c 2c 3e
       0.020930985 -0.09445065 -0.09587049 0.16801466
0002a0 bb cc 8b be 37 d4 bd 3d aa 97 21 3d 0e 1e 14 bd
       -0.27304634 0.092689924 0.03945128 -0.036161475
0002b0 60 cf 81 3b 04 42 0e be d6 a1 5b 3e 26 49 f8 bd
       0.0039614886 -0.1389237 0.21448454 -0.12123327
0002c0 5a be d5 3c 44 3b 56 be 03 7c 08 3e f0 e8 80 3e
       0.026091743 -0.20921046 0.13328557 0.25177717
0002d0 4f f0 36 be b9 ad 10 be c8 3a 23 3d 52 1f a6 3e
       -0.17865108 -0.1412877 0.03985098 0.3244577
0002e0 55 60 09 be c4 2b 99 3e 8c 85 77 bd 14 9b ce 3d
       -0.13415654 0.29916203 -0.060430095 0.100881726
0002f0 e4 ea 0c be 8c 42 d8 bd 41 24 88 3b 36 33 b3 3d
       -0.13761479 -0.10559568 0.0041547124 0.08750002
000300 26 7a 05 3e db 38 04 bd ed b3 7b be de af 3e be
       0.13034877 -0.032280784 -0.24580355 -0.18621776
000310 59 1a 9c 3a f3 d3 03 3d d8 64 6d be 54 a3 01 3e
       0.0011909708 0.032184552 -0.23183 0.12659961
000320 71 a4 dd bd 05 3e 8c 3e 35 fa 8a bd 1a 86 53 ba
       -0.1082238 0.27391067 -0.067860045 -0.0008068994
000330 fb 2b 45 3b d0 f3 cc 3b 1d c0 4f bd d7 9a 3a bb
       0.003008603 0.0062546507 -0.050720323 -0.002847364
000340 0d 1b 14 bd 65 c8 95 3c 56 9b 94 3d 2e d1 f3 3d
       -0.03615861 0.018284032 0.072561905 0.11905132
000350 b7 db 25 3e 73 15 cb bd 8e 5c 91 bd 63 74 fe 3d
       0.16197096 -0.099162005 -0.070977315 0.12424543
000360 b9 29 ee bc e5 dc 15 bd 7e d4 f9 bd 0b 77 29 be
       -0.02907263 -0.036587615 -0.12198733 -0.16549318
000370 d6 f1 2c be 8e 0d 26 bd c7 13 bc be 9b ec a1 3d
       -0.16889128 -0.04054027 -0.3673384 0.07906457
000380 0c c5 4e 3e 9a ec 44 be c1 92 52 bd 8b a8 fd 3c
       0.20192355 -0.19230881 -0.051409487 0.030964157
000390 34 d9 e6 3d af be 4d 3d 94 56 cc 3c df 74 1f be
       0.11271897 0.05023068 0.024943627 -0.15571927
0003a0 c0 c6 f3 bd da b3 a4 bd 77 10 58 be 79 52 53 3c
       -0.11903143 -0.080421165 -0.21100031 0.012898081
0003b0 79 91 29 3e 76 35 fc bd 2e 1f 17 3e 56 90 da 3d
       0.165594 -0.12314884 0.14757988 0.10672061
0003c0 87 38 d5 bc f5 d7 4e be 39 ae ab 3b f7 13 66 3d
       -0.02602793 -0.20199569 0.005239275 0.056171384
0003d0 b0 49 83 bd c9 9c 00 3d 81 78 fa be 25 24 84 39
       -0.06410539 0.031399522 -0.48920062 0.00025203932
0003e0 51 59 ba 3d e7 a2 18 3e 4e 2a a6 3c 8c 48 46 bd
       0.09099067 0.14905892 0.020283844 -0.04840903
0003f0 53 e0 2e 3e 76 13 e0 bd 06 fe da bd d4 74 26 be
       0.1707776 -0.10941212 -0.106929824 -0.16255504

network_body._body_endoder.seq_layers.2.bias f4 [256]
000000 ab e2 a8 3c 92 af 2e bc db 9e 63 3b fa 65 d6 3b
       0.020615896 -0.010661976 0.0034732136 0.0065429183
000010 01 c5 ad ba 97 af b1 bc 6a df 19 3c c0 e7 c3 3a
       -0.0013257564 -0.021690173 0.009391645 0.0014946386
000020 72 31 c2 bb 83 3e e5 3c 77 37 cc bb f3 df 27 bd
       -0.0059263045 0.02798391 -0.006232198 -0.04098506
000030 af 64 59 bb 20 37 60 bc 81 36 28 3d c1 f0 fb bc
       -0.0033171584 -0.013685018 0.041067604 -0.030754449
000040 90 ac 4b 3c 0f 3f c9 3c b2 c3 79 bc 99 cc 76 3c
       0.012431279 0.024566201 -0.015244411 0.015063428
000050 d3 8f 67 bb 29 47 94 3b c2 6a c1 bb 6a dc d7 bc
       -0.0035333529 0.0045250845 -0.005902619 -0.026350219
000060 fb 7e 2f bd 22 b0 bb ba 90 f2 12 3c 94 94 bd 3c
       -0.042845707 -0.001431946 0.008968964 0.023142137
000070 5b 02 66 bc 1e a6 53 3c 82 20 09 3d 2c 35 7e 3d
       -0.0140386475 0.012918023 0.033478267 0.062062427
000080 69 65 26 bb 86 4b b3 3b fa 50 33 bd 84 ab 0b 3c
       -0.0025390035 0.0054716496 -0.043778397 0.008524779
000090 16 f8 79 3b 30 8a 61 bb 59 8a bc 3b cb b9 40 bc
       0.0038142256 -0.0034414642 0.005753797 -0.0117630465
0000a0 67 63 b0 3b 32 78 7f 3c cd 7d c0 3b ba 8b df 3a
       0.0053829434 0.015592622 0.0058743716 0.0017055192
0000b0 00 b1 a6 3c 18 46 09 3c ec 56 d4 ba 76 1d 03 3d
       0.020348072 0.008378528 -0.0016200221 0.032010518
0000c0 84 0b 90 bc 87 01 9f bb f4 e4 c8 bb 19 87 cd 3b
       -0.017583616 -0.004852477 -0.006130809 0.0062722084
0000d0 8d 0a 9b bc 08 d0 56 3b 77 1e 9b bc a0 ad 47 3c
       -0.01892593 0.0032777805 -0.018935425 0.0121873915
0000e0 21 11 c8 3c a0 bb fa 3c af cd 18 bb b4 92 c0 bc
       0.02442223 0.030607045 -0.0023315956 -0.023507454
0000f0 23 d2 33 bb aa 92 3b 3b 65 af 05 ba 1b 33 87 3c
       -0.0027438484 0.0028621354 -0.0005099683 0.016503861
000100 0e 7f da bc f9 9d 85 bc 21 d4 c3 3c 43 71 07 3d
       -0.026671913 -0.016310679 0.023904862 0.033067
000110 df 3d a8 3b c6 0c df 3a cf 77 c1 b9 6b 17 a6 3b
       0.0051343287 0.0017017357 -0.00036901093 0.0050687096
000120 f3 33 b6 3b 19 7e 52 bc e4 1e 75 3c 32 36 14 3c
       0.005560392 -0.012847447 0.014960978 0.009046124
000130 f6 65 31 bc ba 15 31 bc 93 66 d8 3b 2c be 01 3d
       -0.010827532 -0.010808403 0.0066040247 0.031675503
000140 b7 12 d6 bb c3 9b 5c bc c0 73 92 bc fd 11 a4 3c
       -0.0065329927 -0.013464871 -0.01787746 0.020028109
000150 06 46 f3 3b 43 f2 1b 3c 1d 93 28 3a 87 b3 09 3d
       0.007424119 0.009518209 0.0006430613 0.033618476
000160 64 e1 fc 3c f0 e8 46 3c 37 51 d0 3a e9 5c 36 bc
       0.030869193 0.012140498 0.0015893345 -0.01113055
000170 c5 53 13 bb 07 3f b1 b9 7f a8 3e bc c7 36 99 3c
       -0.002248035 -0.0003380703 -0.011636852 0.018702878
000180 1c 31 58 bc 85 c3 19 3c 54 32 10 3c 74 d8 7b b7
       -0.013195302 0.009384994 0.008801062 -1.5011163e-05
000190 da 80 6a 3a e0 ec 79 3b 9d 37 84 bc 40 40 d2 3c
       0.0008945592 0.0038135573 -0.0161398 0.025665402
0001a0 be a2 99 3c 68 fb 72 3b 8a a4 d1 3c 90 df 9d 3c
       0.01875436 0.003707612 0.025591154 0.019271642
0001b0 cc 30 df 3c 51 4b e2 3c e9 9d 7d 3c c8 aa 94 3c
       0.027244948 0.027623804 0.015479543 0.018147841
0001c0 3a 84 7d 3c 65 7b 8c 3b 8b f6 03 bd 5e 0e c8 bc
       0.01547342 0.0042871707 -0.032217544 -0.024420913
0001d0 a5 54 3a 3c 99 1e b3 3b cb 63 b5 bb 69 14 c2 bb
       0.01137272 0.005466294 -0.005535578 -0.0059228432
0001e0 b6 0d de 3c 76 21 67 3c ee 7f 9c 3c d2 69 cb 3c
       0.027106147 0.014107099 0.01910397 0.024830732
0001f0 7a 01 8e 3a 09 39 9a 3c 73 2b 40 39 a5 69 82 3c
       0.001083418 0.018826025 0.00018326733 0.015919516
000200 bf 5b a1 bc 53 14 d5 3c 97 7d 39 bc f7 06 dc 3c
       -0.019697068 0.026010668 -0.011321447 0.02685879
000210 9f b0 c5 3c 1b de 71 bc f2 10 65 bc d5 46 2f bb
       0.024132071 -0.014762427 -0.013981091 -0.00267451
000220 8c 03 12 bd c2 bf e2 bc 6c 23 d0 3c 2b 44 07 bd
       -0.035647914 -0.027679328 0.025407515 -0.033023994
000230 8f f8 a3 3b 19 c4 e1 3a 90 ea da bc 58 f0 82 3b
       0.0050039957 0.0017224579 -0.026723176 0.0039959364
000240 0f 62 d1 bc 7f 60 87 bc f0 bc df bc 9b 20 d9 3a
       -0.025559453 -0.016525505 -0.027311772 0.0016565503
000250 75 c4 ca bc 35 9f 8a bc 97 dd f7 3c f2 44 1b bd
       -0.024751881 -0.016921619 0.03025703 -0.03790755
000260 02 6b 50 b8 da b9 2b ba 76 60 8d 3c 78 30 70 3c
       -4.9690723e-05 -0.00065508264 0.01725791 0.014659993
000270 7c 99 96 bc aa ec cd 3b 6f e3 1f 3c d6 69 09 3c
       -0.018383734 0.006284316 0.009758814 0.00838705
000280 ce e7 b6 b9 5c 84 24 3d 43 69 65 bc 14 82 2a bb
       -0.00034886453 0.04016529 -0.014002147 -0.0026017474
000290 dd b1 e9 3a 5c 04 b3 3c b1 af e7 3c d2 96 87 3c
       0.0017829497 0.021852665 0.028282018 0.016551409
0002a0 8c a5 88 3c b9 1d 9e 3b b2 6f d7 bc 0c 9c 9a bc
       0.016680501 0.0048253206 -0.026298378 -0.018873237
0002b0 8c 64 12 3c a1 83 96 3c aa 0c 06 3d 50 60 65 3b
       0.008935105 0.018373312 0.03272692 0.0035000034
0002c0 ee 75 63 bc 20 44 8d bc e0 b5 cc 3c 9f b2 ec bb
       -0.013883097 -0.017244399 0.024989069 -0.0072234417
0002d0 84 dc fc 3b cb 9e ba ba a0 fb 6c 3b 4a 26 fe bc
       0.007716717 -0.0014237998 0.0036160722 -0.031024117
0002e0 10 f0 f9 3c 74 e0 d3 3c 16 1e 6e 3b 2c 2c 20 3b
       0.030509979 0.025863864 0.003633385 0.002444039
0002f0 ad f9 25 3b c7 39 11 b8 b5 67 29 bd c6 9c 37 bc
       0.002532582 -3.4624503e-05 -0.04135867 -0.011206811
000300 0a c4 82 bc ff a7 8c 3b 90 a3 22 3c 79 28 f2 3c
       -0.01596262 0.0042924876 0.009926692 0.029560314
000310 b0 c3 fd 3b c2 b0 7f bb f5 d9 f5 ba 25 ad 03 3d
       0.007744275 -0.0039015268 -0.0018756973 0.032147545
000320 51 44 dc 3b 7f 1c cf ba 4c b0 a8 bb 11 c7 6a 3d
       0.006722011 -0.0015801339 -0.0051479694 0.05731875
000330 64 9f f8 3c 9f fd 01 3b c1 3a 6e 3c fe f0 81 3c
       0.03034944 0.0019835008 0.014540375 0.015861984
000340 7d d5 91 3c 97 f0 c6 3c e1 95 dc 3b 76 62 ee 3b
       0.017801994 0.024284644 0.006731734 0.007274921
000350 19 b8 1d 3b 0c 7b b2 bc dd 53 9e 3c 01 02 1b 3d
       0.002406603 -0.021787189 0.019327099 0.037843708
000360 24 60 66 bc b3 24 ac 3c a2 95 7a 3c 8f 82 f6 bb
       -0.014061008 0.021013593 0.015294464 -0.007522888
000370 ec 69 3a bc ec 47 c0 3c 0b 03 1a 3b e6 6b d6 3c
       -0.011377793 0.023471795 0.002350035 0.026174497
000380 93 0e c7 3c 3e b0 c2 ba 89 72 a3 bb 27 0f 9c 3c
       0.024298942 -0.001485355 -0.004988019 0.019050194
000390 b2 1e ad bc 28 a8 a7 bb f0 6b f9 3c 41 ee 22 bb
       -0.0211328 -0.0051164813 0.030446976 -0.0024861249
0003a0 66 a3 13 3d 0d 43 23 bc 84 56 2f 39 9d a6 95 bc
       0.0360445 -0.009964717 0.0001672153 -0.018267924
0003b0 4e 8c 7e 3c 7b 27 4a bc a5 22 94 3c 22 88 e5 3c
       0.015536381 -0.012338514 0.018082926 0.028019015
0003c0 10 04 4c 3c 87 19 d0 bc 97 63 d5 3c c6 ff 29 bc
       0.01245214 -0.025402797 0.026048465 -0.010375923
0003d0 4b c2 3f 3c a9 a1 7f 3c 84 6c aa bc 11 1c e3 3a
       0.011704038 0.015602508 -0.020803697 0.001732709
0003e0 63 25 92 3c c7 5e a9 3c a7 47 32 3c 5f a8 e2 bb
       0.017840093 0.020675076 0.010881341 -0.006917044
0003f0 bc 5f 8f bc f5 91 4f 3c c7 e1 0d 3c 9a e1 02 3c
       -0.017501704 0.012669076 0.008659787 0.007988358
