Assets/models/TargetBehaviour.onnx (onnx, 412213 bytes, 11 tensors)

action_model._discrete_distribution.branches.0.bias f4 [3]
0.026360428 -0.01570483 -0.004362066
00000000: d3f1 d73c 6aa7 80bc a9ef 8ebb

action_model._discrete_distribution.branches.0.weight f4 [3, 256]
-0.045716584 0.007885858 0.01162843 -0.0021202038 -0.072089314 -0.00973738 -0.0795735 0.009250814
-0.016452765 -0.013313193 0.01047981 0.103671126 -0.037408967 -0.019284911 -0.0062441346 0.017148703
-0.06420779 -0.05062721 0.031014059 0.00037847302 -0.030199913 0.015592849 0.0035523074 -0.061410066
-0.07711425 -0.047924515 -0.049849615 0.0676287 -0.062180128 0.01612828 -0.017157521 -0.075922236
-0.045241117 0.028320003 -0.034100346 -0.052352585 -0.0005598689 -0.057951912 -0.025139594 -0.083140835
0.013128524 -0.03654348 -0.032455813 0.013359703 0.02078186 0.03606814 -0.001495368 0.048679393
-0.05752733 -0.045691554 -0.10402437 0.017268617 -0.045179382 -0.025846608 0.026273625 -0.063982986
-0.052449584 0.023715904 -0.07729006 -0.035406675 -0.0468307 -0.12789726 -0.03281664 0.07006371
-0.066254765 -0.00080341985 -0.04874706 -0.04028627 -0.07275544 0.010348771 -0.072051205 -0.026437737
-0.034138653 -0.03553505 -0.044919208 0.0116633205 0.0042815693 0.0092680035 -0.037909977 -0.005191582
-0.081638075 -0.049161438 -0.050452072 -0.04128591 0.036551476 -0.041084923 -0.06872773 -0.04472985
-0.021496898 -0.030505124 -0.016085051 0.058059894 -0.05876317 -0.009618685 -0.038536865 0.03501644
-0.033045292 0.01624046 0.02817944 -0.06984349 -0.067414925 -0.05588505 -0.025860252 -0.041723512
0.026231918 -0.06572763 -0.009507649 -0.0030241564 -0.048878744 -0.054910894 -0.053053983 -0.14139463
-0.06797101 0.020844921 -0.0058128815 0.04456266 -0.110478565 -0.048308045 0.017578451 -0.025008585
-0.03465605 -0.034713797 -0.07985204 -0.043891553 0.012510656 -0.05198453 0.039969906 -0.022476578
-0.0267032 -0.03949314 -0.014510998 -0.068721235 -0.023720872 0.0047832066 0.031643786 0.016888913
-0.057805464 0.013923594 -0.03425786 -0.042607848 -0.019243538 0.014827841 -0.006364286 0.008009793
-0.05731518 0.025167212 0.0014784156 0.053095065 0.0120993685 0.057357937 0.019150324 -0.07084711
0.0016660478 -0.031944964 0.0041124607 -0.00826791 -0.043859646 -0.0776332 -0.028589735 0.033509195
-0.011526551 -0.050473414 -0.05499878 -0.035563152 -0.043199293 0.048031524 -0.029472357 -0.007744366
0.058022186 -0.07438 -0.06257389 -0.03987169 -0.04753695 -0.017210322 -0.020369701 0.01130595
-0.024336688 0.0018025802 0.033024117 -0.05272103 -0.0062982296 -0.060930736 0.05357542 -0.032710813
0.015540704 -0.06430552 -0.09266785 -0.10304722 -0.040327612 -0.028930796 -0.07015097 -0.014450651
-0.027883325 -0.024912186 -0.06351926 -0.09919465 -0.00012606294 0.0037669968 0.071308374 -0.029701708
-0.011763217 -0.0019135976 -0.052514788 -0.014039743 0.031311337 -0.0154575175 0.013637723 0.08916829
0.01000483 -0.012689524 0.009166105 -0.048533022 -0.039424997 -0.07352414 -0.059704542 -0.0060475054
-0.011171719 -0.03908461 0.038024273 0.0051928037 -0.03986674 0.031842407 -0.012289453 -0.017634174
-0.031819332 -0.05811855 0.017096564 -0.07103156 -0.026388304 -0.042162 -0.03124379 -0.03369471
-0.0090266485 2.9373168e-06 -0.022269653 -0.007819297 -0.03525554 -0.05216036 -0.050305765 0.01843996
-0.09387371 -0.005205765 -0.06964535 0.004474547 -0.11282586 0.018505618 -0.08017443 -0.07233159
-0.017330898 -0.06709012 -0.042314164 -0.025448103 -0.0598187 -0.0062993146 -0.02780019 -0.01638361
00000000: 5041 3bbd b033 013c 2c85 3e3c 1ef3 0abb
00000010: 90a3 93bd 8889 1fbc 6ef7 a2bd ba90 173c
00000020: f3c7 86bc 941f 5abc 82b3 2b3c 8751 d43d
00000030: 253a 19bd 64fb 9dbc 999b ccbb 707b 8c3c
00000040: 607f 83bd 7a5e 4fbd 3211 fe3c ca6d c639
00000050: cf65 f7bc 2679 7f3c d4cd 683b 1f89 7bbd
00000060: 13ee 9dbd 7f4c 44bd 1c2f 4cbd ea80 8a3d
00000070: 97b0 7ebd 741f 843c ee8d 8cbc 1e7d 9bbd
00000080: c04e 39bd 5aff e73c ceac 0bbd aa6f 56bd
00000090: 2ac4 12ba fc5e 6dbd 8df1 cdbc be45 aabd
000000a0: 0519 573c 9eae 15bd 63f0 04bd a8e2 5a3c
000000b0: b83e aa3c 30bc 133d 3900 c4ba 0b64 473d
000000c0: c7a1 6bbd 1127 3bbd bb0a d5bd ea76 8d3c
000000d0: 040e 39bd 44bc d3bc c93b d73c 8309 83bd
000000e0: 60d5 56bd db47 c23c 404a 9ebd 9706 11bd
000000f0: 8cd1 3fbd 80f7 02be be6a 06bd 907d 8f3d
00000100: 94b0 87bd 989c 52ba ffaa 47bd 3703 25bd
00000110: ce00 95bd e48d 293c 958f 93bd f493 d8bc
00000120: f9d4 0bbd 338d 11bd 34fd 37bd 8317 3f3c
00000130: 684c 8c3b d3d8 173c 7e47 1bbd 251e aabb
00000140: dd31 a7bd 815d 49bd d5a6 4ebd 6a1b 29bd
00000150: 00b7 153d aa48 28bd 20c1 8cbd a636 37bd
00000160: 431a b0bc e2e5 f9bc ccc4 83bc 36d0 6d3d
00000170: a6b1 70bd b097 1dbc d5d8 1dbd 666d 0f3d
00000180: 805a 07bd b70a 853c 92d8 e63c 1b0a 8fbd
00000190: d610 8abd b9e7 64bd e1d8 d3bc 46e6 2abd
000001a0: 52e4 d63c 359c 86bd f8c5 1bbc ed30 46bb
000001b0: 1435 48bd 3fea 60bd 224f 59bd c1c9 10be
000001c0: 6334 8bbd f8c2 aa3c fc79 bebb 5687 363d
000001d0: 9642 e2bd a8de 45bd af00 903c cede ccbc
000001e0: 81f3 0dbd 0e30 0ebd 7789 a3bd a1c7 33bd
000001f0: 7ff9 4c3c bbed 54bd 7cb7 233d cd20 b8bc
00000200: abc0 dabc 8fc3 21bd 89bf 6dbc b8bd 8cbd
00000210: 4652 c2bc 72bc 9c3b ea9c 013d 9e5a 8a3c
00000220: 6cc5 6cbd c91f 643c f851 0cbd 9185 2ebd
00000230: a0a4 9dbc 79f0 723c 808b d0bb 823b 033c
00000240: 52c3 6abd 782b ce3c 65c7 c13a 367a 593d
00000250: 6e3c 463c 28f0 6a3d 24e1 9c3c 4a18 91bd
00000260: 4a5f da3a b9d8 02bd d2c1 863b 2176 07bc
00000270: 2ca6 33bd 28fe 9ebd 0535 eabc f040 093d
00000280: dcd9 3cbc 36bd 4ebd 6746 61bd abaa 11bd
00000290: bef1 30bd b4bc 443d 0370 f1bc 73c4 fdbb
000002a0: aca8 6d3d 8b54 98bd bd26 80bd 7f50 23bd
000002b0: 1bb6 42bd a9fc 8cbc 5cde a6bc 973c 393c
000002c0: bc5d c7bc 8e44 ec3a 4c44 073d 02f2 57bd
000002d0: 6161 cebb 8292 79bd e671 5b3d c6fb 05bd
000002e0: 709e 7e3c 9db2 83bd a4c8 bdbd 6c0a d3bd
000002f0: 912e 25bd 4700 edbc 50ab 8fbd 6cc2 6cbc
00000300: 926b e4bc a414 ccbc 6316 82bd 9126 cbbd
00000310: c32f 04b9 b8df 763b 200a 923d ff50 f3bc
00000320: 82ba 40bc aed1 faba bf19 57bd f306 66bc
00000330: 5140 003d 8741 7dbc c270 5f3c dd9d b63d
00000340: 4ceb 233c b9e7 4fbc 6e2d 163c 90ca 46bd
00000350: 1b7c 21bd d393 96bd c08c 74bd 272a c6bb
00000360: 9609 37bc 2f17 20bd 57bf 1b3d 6528 aa3b
00000370: 4f4b 23bd 2f6d 023d b459 49bc 8b75 90bc
00000380: fd54 02bd b70d 6ebd 180e 8c3c ff78 91bd
00000390: 492c d8bc 10b2 2cbd faf2 ffbc 7703 0abd
000003a0: 82e4 13bc b81e 4536 d96e b6bc 821c 00bc
000003b0: 1d68 10bd 1aa6 55bd 6b0d 4ebd 660f 973c
000003c0: dc40 c0bd 1f95 aabb 39a2 8ebd 399f 923b
000003d0: 3f11 e7bd 1899 973c 7e32 a4bd 9622 94bd
000003e0: 87f9 8dbc 8b66 89bd 9e51 2dbd 8a78 d0bc
000003f0: 7404 75bd 7b6a cebb 39bd e3bc ec36 86bc

action_model._discrete_distribution.branches.1.bias f4 [3]
0.017856956 0.002792097 -0.025224477
00000000: c048 923c 9dfb 363b 90a3 cebc

action_model._discrete_distribution.branches.1.weight f4 [3, 256]
0.047164697 0.06853587 0.056682963 0.013424113 -0.04168547 -0.07759852 0.047456995 0.01497488
-0.022618774 0.05219818 0.020293096 0.0464194 0.016360419 0.0693006 0.05885428 0.015557844
0.028507965 0.052964106 0.04484837 0.041419573 -0.03667169 -0.052962147 0.05839266 0.0066238884
-0.030650798 -0.032238256 -0.0271613 0.055265125 0.06000752 0.036436565 -0.058649704 -0.03840754
0.046994474 -0.04421122 -0.030860413 -0.015080349 0.019188775 -0.047423612 -0.0055051134 0.003338526
0.055754688 0.052873645 0.03970014 0.044625297 0.039587043 -0.07039169 0.013905065 0.06257065
-0.0039810794 0.017780047 0.028603265 -0.03936219 0.017981393 0.062534384 0.057351578 0.09331915
0.01926358 -0.053256996 -0.045465324 0.08491378 0.032261323 0.07197378 0.035068706 -0.026428951
-0.009964112 -0.034289736 0.025703257 -0.006184998 0.025607107 -0.05427653 0.04553541 0.05790568
0.016617393 -0.059521347 0.02905049 -0.008794555 0.031288397 -0.017574714 0.0023640187 -0.021904783
-0.0068079475 -0.027794754 0.037686363 0.027593164 -0.0010268909 0.04815799 0.00023785103 0.029800052
0.0546554 -0.056118127 -0.039116174 0.020230565 -0.019435877 -0.010940979 0.04650626 -0.016388996
-0.010739004 -0.068102986 -0.01564912 0.0014561277 0.007972792 -0.0043009687 0.09572016 -0.029633336
-0.05025939 -0.04927073 0.03340437 0.04300916 0.08065767 -0.008808244 0.02265611 0.05921054
0.0503401 0.031664215 0.034151014 0.0392876 0.032343995 0.07579163 0.04253214 0.068394944
0.01141913 0.05113725 0.058485378 0.03316691 0.02598985 -0.06091598 -0.062016413 0.026200661
0.009121703 -0.02032545 -0.020876536 0.08190933 -0.05334018 0.028230546 -0.012394115 0.011478735
0.057975445 0.04988615 0.04901765 -0.032993548 -0.013568841 0.06120357 0.036304355 0.056530844
0.043005567 0.015710993 0.034012098 0.076576196 0.03417586 -0.039941486 -0.015382412 0.01711197
-0.0049035656 -0.0065672672 0.010938946 0.033062607 0.012573616 -0.012213883 -0.044842415 -0.030957611
0.016513 0.04328018 0.09239243 -0.016517395 0.03282668 0.08734295 -0.052247938 -0.0031453862
0.0009844718 0.06278167 -0.021136258 -0.020496856 -0.024070662 0.057740875 0.011374324 -0.048858453
0.014223771 0.0011943213 0.06494813 0.020962276 0.0367951 0.018645769 0.061576 0.04709271
-0.0226658 -0.009863094 0.05095392 0.06388005 0.059239294 -0.037605345 -0.022761194 -0.07065761
0.045221917 0.06414999 0.008683245 -0.029714491 0.08784042 -0.014494246 0.0070972326 0.013820619
0.022852484 0.026746074 0.008142953 0.016618088 0.09082483 -0.022393389 0.09245759 -0.08085013
0.0043222415 0.045155633 -0.043190736 0.019745573 -0.062100828 0.0662631 0.09457968 -0.05295485
0.060086578 0.0012753624 0.01445705 -0.035869863 0.010906826 0.06701029 0.01865542 0.0036245564
-0.022994004 -0.0010111479 0.064860955 -0.050006263 -0.005592033 0.04035027 -0.07381594 0.063224345
-0.0013671542 0.060813718 -0.009839715 -0.008101041 -0.05952087 0.049419943 -0.020516139 0.030539844
-0.028457431 -0.0410646 -0.014080891 0.044542503 0.029434122 -0.01555121 0.07974958 -0.025109665
0.061996084 0.005512146 0.018063687 0.07997778 0.005764517 0.026761476 0.03406344 0.055406813
00000000: c52f 413d 895c 8c3d 652c 683d d0f0 5b3c
00000010: 62be 2abd f9eb 9ebd 4462 423d 3359 753c
00000020: 024b b9bc c2cd 553d b53d a63c 4522 3e3d
00000030: 4906 863c 79ed 8d3d 2f11 713d 54e6 7e3c
00000040: 8989 e93c e4f0 583d edb2 373d 92a7 293d
00000050: 0e35 16bd d6ee 58bd 242d 6f3d 340d d93b
00000060: 6217 fbbc 430c 04bd 6081 debc af5d 623d
00000070: 72ca 753d 823e 153d ac3a 70bd 3a51 1dbd
00000080: 477d 403d d316 35bd face fcbc 9113 77bc
00000090: c731 9d3c 433f 42bd 3d64 b4bb 2ccb 5a3b
000000a0: 075f 643d 0992 583d 9d9c 223d 04c9 363d
000000b0: 0626 223d 8529 90bd 12d2 633c 0a25 803d
000000c0: b773 82bb 76a7 913c 6551 ea3c 3f3a 21bd
000000d0: b74d 933c 0712 803d 7de9 6a3d 1c1e bf3d
000000e0: a8ce 9d3c 0224 5abd d939 3abd 47e7 ad3d
000000f0: 7324 043d fd66 933d 34a4 0f3d 8781 d8bc
00000100: 8440 23bc 6573 0cbd a38f d23c 86ab cabb
00000110: ffc5 d13c 1151 5ebd 5783 3a3d 822e 6d3d
00000120: 3321 883c a8cc 73bd 4bfb ed3c 0a17 10bc
00000130: 4328 003d d9f8 8fbc a7ed 1a3b a971 b3bc
00000140: 3415 dfbb d3b1 e3bc 045d 1a3d 0f0b e23c
00000150: be98 86ba 5041 453d a667 7939 3d1f f43c
00000160: 57de 5f3d 1fdc 65bd 4838 20bd 92ba a53c
00000170: fd37 9fbc cb41 33bc 597d 3e3d 3742 86bc
00000180: a6f2 2fbc 9479 8bbd 9532 80bc 8adb be3a
00000190: 50a0 023c 24ef 8cbb ee08 c43d 9cc1 f2bc
000001a0: cadc 4dbd 1bd0 49bd 05d3 083d 5f2a 303d
000001b0: d92f a53d 7450 10bc 4e99 b93c c086 723d
000001c0: 6c31 4e3d 56b2 013d efe1 0b3d 09ec 203d
000001d0: 237b 043d a438 9b3d 2e36 2e3d a612 8c3d
000001e0: 4d17 3b3c 4b75 513d 5d8e 6f3d 07da 073d
000001f0: aae8 d43c 0983 79bd ec04 7ebd c5a2 d63c
00000200: 3273 153c 8f81 a6bc 4505 abbc 14c0 a73d
00000210: 3c7b 5abd bf43 e73c b010 4bbc 4e11 3c3c
00000220: a977 6d3d 6b55 4c3d bbc6 483d 3e24 07bd
00000230: d84f 5ebc 98b0 7a3d e0b3 143d e38c 673d
00000240: 9b26 303d 57b4 803c 4550 0b3d fbd3 9c3d
00000250: fdfb 0b3d af99 23bd 8306 7cbc 672e 8c3c
00000260: 17ae a0bb 3b32 d7bb 4439 333c a86c 073d
00000270: 9101 4e3c bd1c 48bc aeac 37bd d19a fdbc
00000280: 4546 873c 8f46 313d 3e38 bd3d 7d4f 87bc
00000290: 4575 063d dce0 b23d ef01 56bd d322 4ebb
000002a0: 6409 813a ad93 803d f225 adbc 06e9 a7bc
000002b0: d62f c5bc b281 6c3d 5f5b 3a3c cd1f 48bd
000002c0: d20a 693c c68a 9c3a 8603 853d 14b9 ab3c
000002d0: 75b6 163d 03bf 983c 1e37 7c3d 49e4 403d
000002e0: a1ad b9bc d198 21bc 0fb5 503d 8bd3 823d
000002f0: e7a4 723d 1008 1abd af75 babc f0b4 90bd
00000300: 9e3a 393d 1261 833d 2b44 0e3c ce6b f3bc
00000310: aee5 b33d 4679 6dbc e78f e83b e16f 623c
00000320: 2235 bb3c 951a db3c 056a 053c a822 883c
00000330: 5e02 ba3d 5772 b7bc 685a bd3d c194 a5bd
00000340: 97a1 8d3b 1df5 383d c5e8 30bd 78c1 a13c
00000350: 705d 7ebd f3b4 873d feb2 c13d 2fe7 58bd
00000360: 581d 763d 102a a73a 43dd 6c3c 47ec 12bd
00000370: 8bb2 323c b13c 893d 40d3 983c f789 6d3b
00000380: ec5d bcbc 7e88 84ba d2d5 843d 5ed3 4cbd
00000390: 5f3d b7bb 5346 253d d02c 97bd c47b 813d
000003a0: 1532 b3ba ce17 793d c236 21bc 3bba 04bc
000003b0: 28cc 73bd 916c 4a3d 7611 a8bc b22e fa3c
000003c0: 8f1f e9bc 5b33 28bd 8ab3 66bc 3372 363d
000003d0: d41f f13c 81ca 7ebc bf53 a33d c9b2 cdbc
000003e0: 9bef 7d3d 3b9f b43b 4cfa 933c 64cb a33d
000003f0: 46e4 bc3b e23a db3c 1b86 0b3d 41f2 623d

action_model._discrete_distribution.branches.2.bias f4 [2]
0.0070491894 -0.0070491885
00000000: e3fc e63b e1fc e6bb

action_model._discrete_distribution.branches.2.weight f4 [2, 256]
-0.005549123 0.02370293 -0.03568285 0.0133905215 0.0010045533 0.03821173 -0.020646315 0.0037895879
0.007818285 -0.010513052 -0.0013017673 -0.04761203 0.01294238 0.012305339 -0.011024842 0.034889475
0.020160934 0.023393134 0.030092228 -0.006403119 0.0032773155 -0.013694737 0.009578225 0.0033930284
-0.029778829 0.0146793425 -0.026764454 0.00063228986 -0.0076060044 0.01294611 0.010021397 0.016574714
-0.004982129 0.0017437469 0.008113381 -0.00048960524 0.0010421348 0.024456566 0.026178628 0.076869264
0.030160809 0.006113232 0.027891582 0.019588517 -0.0072992905 -0.06299985 -0.018585538 -0.0064478777
0.026605055 0.011765425 0.016685454 0.043068837 0.061997972 -0.026812162 0.0006835428 0.0014518293
0.021498853 0.009897909 0.0015517593 -0.024248498 0.020014774 0.033369683 -0.012051323 -0.0024629426
0.0063703465 -0.006135606 0.021697292 0.022162592 0.015414846 -0.018397413 0.053194813 -0.019906256
0.01195468 0.002291741 0.026714787 1.6206617e-05 0.005553064 -0.012171271 0.010186092 0.00040254655
0.0038192198 -0.0013340291 0.024709415 -0.014401802 -0.009314676 0.001899769 0.026803056 0.016362958
-0.0054422524 -0.026941897 0.017768197 0.023439802 0.0075604706 -0.034553073 0.009841345 -0.012046639
0.0068209334 -0.013606991 -0.039229766 0.019876266 0.0248841 0.003748803 -0.03727224 0.01388086
0.017137932 -0.00058335176 0.004701258 -0.019990103 0.015773116 0.020827593 0.02814721 -0.00063592795
0.011560283 -0.014998631 -0.000708475 -0.014818928 0.018356578 0.018043695 0.01738208 -0.043456193
0.019845126 0.00048379748 0.017165639 0.019514993 0.0074704047 0.016870711 0.03748383 0.03290186
0.036981307 -0.018564174 -0.02286231 -0.014583227 0.011365482 -0.0016595686 0.023980837 -0.019069532
-0.0055514504 0.0028982584 -0.017689789 0.028336076 0.0023784006 -0.02125878 -0.010525812 -0.022053292
0.0016985076 -0.014565026 0.0072379815 -0.01744477 -0.0038603735 -0.01362543 0.0056379945 -0.012137267
-0.035411775 0.023018412 -0.01747968 0.007824197 0.0070100254 0.006663872 -0.0020558792 -0.021331731
-0.021210613 0.0123726465 -0.00467484 0.049753517 0.042070094 0.008397001 0.012009692 0.008286644
-0.010798172 -0.0021418638 -0.0023435268 -0.0045770425 0.01081796 0.0040692342 0.0012224918 0.004895056
0.041462127 -0.03109271 -0.02572374 0.055893168 0.017263254 0.021877922 -0.022083068 0.000452369
-0.008325934 0.0067051 -0.0029169389 0.01813808 0.01372178 -0.0035792422 0.021013899 -0.00015751584
0.006450081 0.007074415 0.013484187 0.013682106 0.018329423 -0.011023136 -0.0078654885 -0.0020334856
0.017802319 0.021185325 -0.018974438 0.01646901 0.015631253 0.0054322626 -0.017720874 0.008102438
0.021335073 0.008119912 0.0043380866 0.05460151 0.021263909 0.024876596 -0.004644235 0.02158223
0.00904177 -0.025755076 -0.046206135 0.011555015 0.018644977 -0.0037919139 0.0069518816 0.016514668
0.032436695 0.017748222 -0.0033045493 0.00055471185 0.020461597 0.0113061685 -0.0002461119 -0.0061353543
-0.04014152 0.015825784 -0.0018530838 -0.00658679 -0.01571629 0.011894444 0.03648402 -0.015163161
0.040846463 0.00091537327 0.0142261125 0.009667825 0.045177933 0.021154996 0.032774422 0.028284848
0.02355349 0.018476093 -0.018539079 0.019220881 0.026480652 -0.027961465 -0.0076719048 -0.011034223
00000000: 6bd5 b5bb a62c c23c 2e28 12bd eb63 5b3c
00000010: 37ab 833a e783 1c3d 7622 a9bc bc5a 783b
00000020: 4418 003c f03e 2cbc 10a0 aaba d504 43bd
00000030: 470c 543c 559c 493c 8aa1 34bc 44e8 0e3d
00000040: 8b28 a53c f5a2 bf3c fa83 f63c 41d1 d1bb
00000050: 3bc8 563b e45f 60bc fded 1c3c 925d 5e3b
00000060: bbf2 f3bc a081 703c 2141 dbbc 41c0 253a
00000070: ca3b f9bb ec1b 543c c930 243c b2c7 873c
00000080: 2141 a3bb 708e e43a fded 043c da58 00ba
00000090: 3e98 883a 2359 c83c 9074 d63c a26d 9d3d
000000a0: cd13 f73c 8251 c83b e37c e43c 1978 a03c
000000b0: e32e efbb 1106 81bd b340 98bc b848 d3bb
000000c0: d8f2 d93c c5c3 403c efaf 883c f368 303d
000000d0: 96f1 7d3d 2ea5 dbbc c82f 333a 4f4b be3a
000000e0: 5d1e b03c d72a 223c 6764 cb3a c9a4 c6bc
000000f0: 06f6 a33c a6ae 083d ea72 45bc 5269 21bb
00000100: 57be d03b 320d c9bb 85be b13c 538e b53c
00000110: 8d8e 7c3c 2cb6 96bc cee2 593d 7212 a3bc
00000120: 90dd 433c 0931 163b f8d8 da3c 72f3 8737
00000130: 7af6 b53b 036a 47bc 91e3 263c e20c d339
00000140: e04b 7a3b 97da aeba 666b ca3c 89f5 6bbc
00000150: 959c 18bc ab01 f93a 1592 db3c 9c0b 863c
00000160: ec54 b2bb 41b5 dcbc 9c8e 913c d404 c03c
00000170: d3bd f73b 8687 0dbd 983d 213c 445f 45bc
00000180: 2382 df3b dbef 5ebc 64af 20bd 8dd3 a23c
00000190: bdd9 cb3c 7aae 753b c7aa 18bd 8c6c 633c
000001a0: d964 8c3c 13ec 18ba 030d 9a3b 49c2 a3bc
000001b0: 9f36 813c a19e aa3c fa94 e63c 67b4 26ba
000001c0: 5767 3d3c d1bc 75bc f4b8 39ba 17cb 72bc
000001d0: 8960 963c 5fd0 933c dd64 8e3c 1fff 31bd
000001e0: 3f92 a23c 33a6 fd39 f49e 8c3c e8dd 9f3c
000001f0: 4cca f43b 7234 8a3c a588 193d 1ac4 063d
00000200: b679 173d e513 98bc bd49 bbbc 7dee 6ebc
00000210: 4936 3a3c e285 d9ba 7673 c43c b537 9cbc
00000220: f1e8 b5bb b5f0 3d3b 2dea 90bc 0f21 e83c
00000230: f1de 1b3b e526 aebc 7574 2cbc 1ba9 b4bc
00000240: 75a0 de3a 26a2 6ebc 972c ed3b 56e8 8ebc
00000250: 52fe 7cbb 323d 5fbc edbe b83b 63db 46bc
00000260: f00b 11bd 1c91 bc3c 8c31 8fbc 1031 003c
00000270: 5bb4 e53b 9c5c da3b eebb 06bb e2bf aebc
00000280: e1c1 adbc a4b6 4a3c 662f 99bb 58ca 4b3d
00000290: b151 2c3d 9393 093c 4dc4 443c b4c4 073c
000002a0: d1ea 30bc 835e 0cbb db95 19bb 04fb 95bb
000002b0: d03d 313c 3657 853b 053c a03a b566 a03b
000002c0: 31d4 293d 24b6 febc 98ba d2bc 3cf0 643d
000002d0: ab6b 8d3c 5439 b33c 8de7 b4bc f02b ed39
000002e0: 8069 08bc 75b6 db3b 1d2a 3fbb 5096 943c
000002f0: 51d1 603c b891 6abb 5725 ac3c d62a 25b9
00000300: 335b d33b 7fd0 e73b c8ec 5c3c e92a 603c
00000310: 9627 963c 629a 34bc 40de 00bc 3a44 05bb
00000320: 2bd6 913c d98c ad3c 4870 9bbc 04ea 863c
00000330: 1d0d 803c 1f01 b23b 5e2b 91bc 17c0 043c
00000340: e4c6 ae3c 6109 053c 8226 8e3b d5a5 5f3d
00000350: a631 ae3c 01ca cb3c ab2e 98bb 38cd b03c
00000360: ef23 143c 4ffc d2bc a542 3dbd 3f51 3d3c
00000370: 5abd 983c c281 78bb 9ccc e33b c549 873c
00000380: 57dc 043d b864 913c 2391 58bb 156a 113a
00000390: 149f a73c 823d 393c 9408 81b9 150b c9bb
000003a0: 6f6b 24bd 13a5 813c 2de3 f2ba 00d6 d7bb
000003b0: 73bf 80bc eae0 423c 4570 153d e86e 78bc
000003c0: 9f4e 273d a9f5 6f3a a414 693c cc65 1e3c
000003d0: 7f0c 393d 3e4d ad3c 793e 063d a0b5 e73c
000003e0: 40f3 c03c 2d5b 973c 44df 97bc 1c75 9d3c
000003f0: f4ed d83c 710f e5bc 9a64 fbbb e3c8 34bc

discrete_action_output_shape f4 [1, 3]
3.0 3.0 2.0
00000000: 0000 4040 0000 4040 0000 0040

network_body._body_endoder.seq_layers.0.bias f4 [256]
-0.020958466 0.010939813 -0.014582193 -0.0034488745 0.019302467 0.006331028 0.025862081 0.0070885383
0.0035085443 -0.0101414295 0.015763875 0.012548755 -0.00916386 0.05028675 0.02083714 0.012749228
0.011636965 0.0019187042 -0.006933713 -0.001506388 0.02311897 0.036607563 0.02624243 0.015980516
0.021712145 -0.019020047 -0.012059399 0.00047235063 0.03735917 0.0593917 -0.002957892 -0.00024537422
-0.0014197022 0.03678842 0.0091672195 0.029279312 -0.02733084 -0.012024259 0.005458944 -0.015163427
-0.012972237 -0.0062728766 -0.02371559 -0.0060137664 -0.07785706 0.013803625 -0.013203558 0.0143515915
0.035106294 0.013246193 0.007121504 -0.017991869 -0.015281438 0.000105663596 -0.0149304 -0.0015079856
-0.008839052 0.0431842 0.03407216 0.00230873 -0.028230984 0.027091462 -0.0021313436 0.054938402
-0.0010644507 0.02034098 0.0029687644 0.0051115514 0.038661458 -0.017682327 0.028811384 0.003890047
-0.019309353 0.022152448 -0.026605828 0.008094784 -0.009008383 0.0009996685 -0.004129318 -0.024265515
-0.00032888548 0.039876815 0.008841343 0.008164152 -0.014300156 9.872195e-06 -0.0013118533 0.009189488
-0.012940097 0.021660892 -0.0056125033 -0.002765555 0.059556484 -0.018365387 0.0032684822 -0.00039971658
0.054362897 0.014804181 0.008274036 0.0011063936 0.021167513 0.0061858767 -0.021413378 -0.0067078974
-0.0022443512 -0.015067675 0.052614164 0.0130453035 -0.03336399 0.051138513 -0.005861405 -0.012214799
0.0033054424 -0.01366259 0.034539912 -0.010343284 -0.024323119 -0.018126229 0.0138735585 -0.004645476
0.006407081 -0.005364051 0.0029752478 -0.034459114 -0.019743608 0.022239346 -0.0054204445 -0.007898527
-0.004524122 -0.0014406089 0.0011582307 -0.040960617 0.008056365 -0.012842872 -0.022121424 0.0367729
0.03289344 0.014441967 0.0068923165 -0.040794082 -0.032220833 0.023625836 -0.017301643 -0.00085960276
0.028112786 -0.025222553 0.051050987 0.021689914 0.014539592 -0.0062195305 -0.011283461 -0.0036061544
0.023799986 -0.010175988 0.004135969 -0.00065338984 -0.034910653 0.019175287 -0.004468988 0.0040213116
-0.033290543 0.0050845305 0.0031551302 0.034311306 0.022893943 0.018484706 -0.0034969577 0.012310466
-0.02341402 0.0038679037 0.0005385285 0.00962972 -0.0008949487 -0.01611573 -0.032766793 -0.009680111
0.0025979325 -0.00764803 0.024568789 -0.029901873 0.026398439 0.018208595 0.046451285 0.03967107
0.017309716 0.010346267 0.043490745 0.0010742169 -0.008168664 0.0063750003 0.0007624491 -0.011796331
-0.02381979 -0.002165666 -0.03201736 0.005471328 -0.026377818 -0.04201387 -0.009062505 0.004875614
-0.009648562 0.0076672886 -0.025521 0.0031150605 -0.03135761 -0.022180673 0.011769327 -0.019646684
0.0180237 -0.03610147 -0.051997412 0.014632003 -0.02384847 0.0031395943 -0.0009514481 0.006432249
0.06184903 0.009826109 -0.03329847 -0.002833396 0.005235723 0.0033317597 -0.011611119 0.0108011095
0.0045920927 0.009195431 -0.0049198996 0.023476861 0.021775452 -0.010591148 -0.015424537 -0.025006095
-0.018437173 -0.0067939926 0.0052186754 -0.02607119 -0.016044877 0.044274114 0.01740681 0.042768713
0.0141932145 -0.0018258255 0.025332464 -0.034179624 -0.025388734 0.023684312 0.0022899832 -0.00014067866
0.010441552 0.0156836 0.0057364227 -0.028518798 0.009156614 0.0049920036 -0.03818137 -0.0020370306
00000000: 17b1 abbc e73c 333c 27ea 6ebc 8306 62bb
00000010: 3520 9e3c 8374 cf3b b7dc d33c f846 e83b
00000020: 9bef 653b 3d28 26bc 3e23 813c 4b99 4d3c
00000030: 0424 16bc 7bf9 4d3d a6b2 aa3c 23e2 503c
00000040: f8a8 3e3c 087d fb3a 3334 e3bb fe71 c5ba
00000050: ff63 bd3c d0f1 153d 5dfa d63c 92e9 823c
00000060: abdd b13c eecf 9bbc c994 45bc d4a5 f739
00000070: ee05 193d b644 733d 31d9 41bb 92a5 80b9
00000080: 4d15 baba 74af 163d 1b32 163c 2bdb ef3c
00000090: ede4 dfbc 6601 45bc f1e0 b23b 0670 78bc
000000a0: 8189 54bc b48c cdbb 3247 c2bc 210f c5bb
000000b0: 8673 9fbd 9928 623c bc53 58bc f022 6b3c
000000c0: 9ecb 0f3d 8f06 593c 815b e93b af63 93bc
000000d0: ff5e 7abc b697 dd38 a39e 74bc 9aa7 c5ba
000000e0: acd1 10bc eae1 303d 408f 0b3d 104e 173b
000000f0: aa44 e7bc eaee dd3c 03ae 0bbb 1707 613d
00000100: 0a85 8bba 20a2 a63c 9a8f 423b cd7e a73b
00000110: 7a5b 1e3d 87da 90bc da05 ec3c 29f0 7e3b
00000120: a62e 9ebc 0d79 b53c 77f4 d9bc fc9f 043c
00000130: e697 13bc 4f07 833a 3b4f 87bb 79c8 c6bc
00000140: 436e acb9 df55 233d 48db 103c efc2 053c
00000150: 344b 6abc c1a0 2537 7ef2 abba 828f 163c
00000160: b302 54bc 2f72 b13c 17e9 b7bb 503e 35bb
00000170: 80f1 733d 0273 96bc 0834 563b 0d91 d1b9
00000180: a1ab 5e3d 3c8d 723c d38f 073c 6904 913a
00000190: 7e67 ad3c e5b2 ca3b 1c6b afbc eccd dbbb
000001a0: f715 13bb 69de 76bc f381 573d f8bb 553c
000001b0: aea8 08bd 9e76 513d 0711 c0bb 9520 48bc
000001c0: 1fa0 583b 0ed9 5fbc b979 0d3d e176 29bc
000001d0: 4741 c7bc 757d 94bc ec4d 633c 1439 98bb
000001e0: 7ef2 d13b ecc4 afbb 60fc 423b 0025 0dbd
000001f0: 59bd a1bc 4a2f b63c fc9d b1bb d368 01bc
00000200: 163f 94bb d0d2 bcba c6cf 973a 52c6 27bd
00000210: d8fe 033c e96a 52bc fd37 b5bc 2e9f 163d
00000220: 46bb 063d 009e 6c3c f1d8 e13b b217 27bd
00000230: fef9 03bd f88a c13c 2dbc 8dbc f756 61ba
00000240: c94c e63c 879f cebc d71a 513d 0caf b13c
00000250: 7837 6e3c 34cd cbbb 44de 38bc 3b55 6cbb
00000260: 30f8 c23c 30b9 26bc 0687 873b 4048 2bba
00000270: 79fe 0ebd 7e15 9d3c 9770 92bb 35c5 833b
00000280: aa5b 08bd 229c a63b 4dc6 4e3b 038a 0c3d
00000290: 148c bb3c 3d6d 973c 372d 65bb d6b1 493c
000002a0: c2ce bfbc a87c 7d3b 092c 0d3a f9c5 1d3c
000002b0: fe9a 6aba 2305 84bc 7936 06bd 5499 1ebc
000002c0: 1342 2a3b 539c fabb 7c44 c93c c6f4 f4bc
000002d0: 8a41 d83c 312a 953c b443 3e3d 227e 223d
000002e0: 1bcd 8d3c 6483 293c 5a23 323d bdcc 8c3a
000002f0: dcd5 05bc 61e5 d03b 18df 473a 6645 41bc
00000300: b821 c3bc d9ed 0dbb a324 03bd d348 b33b
00000310: 4b16 d8bc bc16 2cbd e77a 14bc 9dc3 9f3b
00000320: 0115 1ebc e13d fb3b 6b11 d1bc 0b26 4c3b
00000330: d670 00bd 3eb4 b5bc 23d4 403c 15f2 a0bc
00000340: 70a6 933c 23df 13bd 3dfb 54bd 12bb 6f3c
00000350: de5d c3bc a7c1 4d3b 9a6a 79ba 9ec5 d23b
00000360: 6955 7d3d b0fd 203c fa63 08bd 7fb0 39bb
00000370: 6e90 ab3b a759 5a3b 903c 3ebc 23f7 303c
00000380: 4479 963b 6fa8 163c 1c37 a1bb 8c52 c03c
00000390: 6f62 b23c 7f86 2dbc 32b7 7cbc 95d9 ccbc
000003a0: 8e09 97bc 24a0 debb 6c01 ab3b 4093 d5bc
000003b0: 8c70 83bc c658 353d ba98 8e3c 3f2e 2f3d
000003c0: a88a 683c 8a50 efba 0786 cf3c efff 0bbd
000003d0: 09fc cfbc 9a05 c23c 8b13 163b 2483 13b9
000003e0: 0b13 2b3c e57a 803c 9af8 bb3b 41a0 e9bc
000003f0: 9f05 163c f693 a33b 1164 1cbd b47f 05bb

network_body._body_endoder.seq_layers.0.weight f4 [256, 133]
-0.2086818 0.019094283 0.033223312 -0.014825432 -0.06135236 -0.014295836 0.06599914 -0.08529869
-0.04874895 0.15566912 -0.059730638 0.043605603 -0.024534216 -0.070744336 -0.07038565 -0.2785336
0.050966885 -0.020306148 0.0036780485 0.05774639 -0.19607313 -0.023331216 0.030269843 -0.07043169
-0.100170135 0.03750375 0.06478132 -0.10004018 -0.1663018 0.07501671 -0.25048897 0.17667572
-0.065114215 -0.22332227 -0.1555006 -0.16877422 0.025947127 -0.14321901 0.18520658 -0.11660123
-0.12460428 -0.09846852 -0.30704558 0.056313325 -0.06977238 -0.040150575 0.012835658 -0.09296278
-0.030318094 -0.15009615 0.07882817 -0.14244054 0.010059083 -0.17229506 0.15887919 0.032584533
-0.10440119 -0.034026816 -0.0060474738 0.07074573 -0.10009686 0.12884827 -0.03421053 -0.07966775
-0.14264894 -0.05009952 0.13916834 0.13722527 0.0011931122 -0.14711662 -0.12543428 -0.10603858
0.12317624 0.0010666372 0.011465558 0.0831191 0.030612653 0.13072038 0.102421634 0.07916737
-0.13937514 -0.11369127 -0.07204053 0.07942735 0.026418217 -0.1370623 -0.04654941 -0.016910747
-0.05932449 -0.016099507 0.051278565 -0.0017267736 -0.0031796228 -0.15195651 0.076564945 0.017818296
0.06474705 0.040238276 0.117528774 0.012765453 -0.1367652 0.15480264 0.007937937 -0.11843447
0.05284878 0.104988635 0.047622733 0.08999305 -0.023706952 -0.15701006 -0.08412245 0.26145807
-0.022700131 -0.027235264 0.35094252 -0.041628312 -0.18830162 -0.05602349 -0.022385683 0.037996184
0.20478965 -0.013165104 0.00045731833 0.04490336 0.0033974296 -0.18771335 0.024207195 0.011662448
-0.14142032 0.028562373 0.11146515 0.025895713 -0.003350852 -0.15147549 -0.054736223 -0.10243032
-0.13757795 0.06677489 -0.14719917 0.032281026 -0.30478865 -0.110278845 0.1247103 -0.019178342
0.053906437 0.07075685 0.07038425 -0.1445554 0.009465947 0.13798429 0.04723553 -0.036686245
-0.08048868 -0.053484652 -0.18295632 -0.079021774 0.053120557 -0.007717374 -0.10695072 0.00021030824
0.051040106 -0.412533 0.0045401948 -0.09320349 -0.08796311 0.01359313 -0.04054836 0.009376731
-0.27094546 0.04092527 0.039401527 0.068901286 -0.022070097 -0.052142594 0.17249432 -0.028782237
0.21984142 0.20864035 -0.014283385 -0.06372622 -0.19184953 -0.083111204 -0.14533074 -0.055722184
-0.13286975 0.03170646 0.04911709 0.12868185 0.13355848 -0.035016894 0.02762914 0.18744735
0.053042322 0.045850255 -0.1423422 -0.14285614 0.00025705018 -0.16591279 -0.1665239 0.04928034
0.25910547 0.0781807 -0.002492068 0.0544845 -0.05177815 0.17463017 0.09168739 0.06517802
0.11643179 -0.11323529 0.23145403 -0.025850201 -0.010773216 -0.0439987 -0.094842285 0.15388198
0.09663461 0.09821209 -0.02732278 -0.014808441 0.026150161 0.027726742 -0.07326292 0.10785697
0.0643559 0.106806464 -0.22127342 -0.051368862 0.15873976 -0.060573313 0.045580313 0.09876686
-0.047030695 0.07067114 -0.039742976 -0.17488045 -0.013294353 0.14716074 0.13015145 0.0058238176
0.009449692 -0.037542235 0.07501529 0.14240168 0.10162951 0.100962065 -0.06038106 0.033397954
-0.115371875 0.069877505 0.034106962 0.24701484 0.047364745 -0.021881161 0.09314971 -0.017430743
00000000: afb0 55be 9d6b 9c3c 2b15 083d 5ee6 72bc
00000010: 9d4c 7bbd 1539 6abc 8f2a 873d 14b1 aebd
00000020: fbac 47bd ba67 1f3e 1da8 74bd ca9b 323d
00000030: fbfb c8bc 68e2 90bd 5a26 90bd f59b 8ebe
00000040: a7c2 503d 1459 a6bc 6a0b 713b 7b87 6c3d
00000050: 65c7 48be 1b21 bfbc 76f8 f73c 7d3e 90bd
00000060: 0026 cdbd 889d 193d 12ac 843d dee1 ccbd
00000070: 054b 2abe 5ca2 993d 1740 80be 7bea 343e
00000080: 9a5a 85bd 98ae 64be 8d3b 1fbe 26d3 2cbe
00000090: 128f d43c 01a8 12be cba6 3d3e a0cc eebd
000000a0: 8730 ffbd dda9 c9bd 1435 9dbe cda8 663d
000000b0: d2e4 8ebd ee74 24bd a74c 523c 4563 bebd
000000c0: a75d f8bc ceb2 19be aa70 a13d efdb 11be
000000d0: dace 243c 1e6e 30be 3ab1 223e 5c77 053d
000000e0: 4bd0 d5bd b45f 0bbd e329 c6bb 23e3 903d
000000f0: 95ff ccbd cdf0 033e 5720 0cbd d828 a3bd
00000100: 9012 12be 2735 4dbd 2582 0e3e c884 0c3e
00000110: 3462 9c3a bda5 16be d871 00be c12a d9bd
00000120: d343 fc3d 68ce 8b3a 09da 3b3c 593a aa3d
00000130: 63c7 fa3c 90db 053e 6fc2 d13d 8122 a23d
00000140: 5bb8 0ebe f8d6 e8bd fc89 93bd ceaa a23d
00000150: 046b d83c 0f5a 0cbe 98aa 3ebd 6888 8abc
00000160: 3dfe 72bd 1de3 83bc 7909 523d e854 e2ba
00000170: 3861 50bb 7d9a 1bbe 15ce 9c3d adf7 913c
00000180: 1a9a 843d e4d0 243d edb2 f03d 3126 513c
00000190: 2d0c 0cbe 9584 1e3e 1f0e 023c c58d f2bd
000001a0: f677 583d 4804 d73d 0e10 433d 474e b83d
000001b0: 1535 c2bc 3fc7 20be 6448 acbd d5dd 853e
000001c0: a0f5 b9bc 7d1c dfbc bdae b33e 7382 2abd
000001d0: 24d2 40be e378 65bd 2e62 b7bc e3a1 1b3d
000001e0: 61b4 513e 73b2 57bc 3ac4 ef39 96ec 373d
000001f0: 69a7 5e3b ee37 40be 2b4e c63c da13 3f3c
00000200: 7dd0 10be a3fb e93c d747 e43d 3f23 d43c
00000210: f899 5bbb 641c 1bbe 1733 60bd fdc6 d1bd
00000220: 3ce1 0cbe 46c1 883d 61bb 16be 1c39 043d
00000230: 420d 9cbe e0d9 e1bd 1d68 ff3d e61b 9dbc
00000240: ffcc 5c3d f8e8 903d 9e25 903d 5506 14be
00000250: 0f17 1b3c c14b 0d3e 0b7a 413d 5144 16bd
00000260: 40d7 a4bd b912 5bbd e758 3bbe 2bd6 a1bd
00000270: f194 593d 06e2 fcbb fb08 dbbd 3086 5c39
00000280: 6e0f 513d 8637 d3be eac5 943b 79e1 bebd
00000290: 0126 b4bd b8b5 5e3c 0a16 26bd dca0 193c
000002a0: 5db9 8abe 42a1 273d 7f63 213d 1e1c 8d3d
000002b0: 59cc b4bc 7993 55bd 5aa2 303e bac8 ebbc
000002c0: 1c1e 613e d1a5 553e dc04 6abc e482 82bd
000002d0: 3474 44be 3536 aabd 95d1 14be f23c 64bd
000002e0: 020f 08be a2de 013d 002f 493d 2dc5 033e
000002f0: 8ec3 083e e06d 0fbd 8256 e23c 33f2 3f3e
00000300: e842 593d 7acd 3b3d 27c2 11be e148 12be
00000310: b1c4 8639 0be5 29be 3e85 2abe 2fda 493d
00000320: 79a9 843e 341d a03d f751 23bb 242b 5f3d
00000330: 5315 54bd 40d2 323e 99c6 bb3d 0e7c 853d
00000340: ca73 ee3d e7e7 e7bd 4902 6d3e cdc3 d3bc
00000350: 2582 30bc fb37 34bd ac3c c2bd 3d93 1d3e
00000360: 5ee8 c53d 6c23 c93d 06d4 dfbc 1a9f 72bc
00000370: dd38 d63c 3123 e33c df0a 96bd 1de4 dc3d
00000380: 07cd 833d 59bd da3d 8095 62be 2868 52bd
00000390: ad8c 223e b91b 78bd 6cb2 3a3d 4846 ca3d
000003a0: 42a3 40bd 08bc 903d 88c9 22bd dc13 33be
000003b0: 8fd0 59bc 4eb1 163e 6c46 053e b9d5 be3b
000003c0: e2d2 1a3c e3c5 19bd 9ea1 993d bfd1 113e
000003d0: 2223 d03d 33c5 ce3d 2152 77bd 4bcc 083d
000003e0: 1748 ecbd f01b 8f3d beb3 0b3d 75f1 7c3e
000003f0: 8901 423d 1f40 b3bc 46c5 be3d ebca 8ebc

network_body._body_endoder.seq_layers.2.bias f4 [256]
-0.0041847364 0.019402007 0.014371702 -0.023006514 -0.027350197 -0.00072241155 -0.025740743 -0.0005266485
-0.012281833 -0.007174003 -0.010880489 -0.013146527 0.015335783 0.01796181 0.005011383 0.01198258
0.014758529 0.01555175 -0.0068924036 0.02765471 -0.0062014274 -0.0011178934 0.013351892 -0.0055694636
0.009297337 -0.010650985 -0.011206137 0.01699483 -0.02309312 -0.019203085 0.0035244424 -0.03562684
-0.0029608847 -0.030922396 -0.016609961 -0.025182936 0.0052937972 -0.0022570244 0.012285188 0.017676886
-0.023378415 -0.037091147 -0.011543577 0.009129934 -0.024737788 -0.0020059324 -0.0149089955 -0.00886792
0.009561843 -0.008109459 0.0015537047 -0.00047554652 0.0048429943 -0.050322548 -0.02958606 0.009018434
-0.0037072825 -0.02230873 -0.015331192 -0.0018965871 0.024441455 0.024446389 -0.02609401 0.0038228524
-0.022128778 -0.025345191 -0.00011508843 -0.022572579 0.024547344 -0.042085774 0.019902105 0.01765113
-0.027480664 -0.03408504 -0.008574881 -0.018698528 -0.010012516 -0.016782723 -0.009779964 0.0001748119
0.007899909 -0.029238224 0.017017286 0.01646623 -0.020220391 0.0015069733 0.013716035 0.021034013
-0.022785518 -0.010871974 0.00527051 0.0013646627 -0.0068156566 -0.014277227 -0.011004596 -0.020844469
-0.0068607456 -0.012127335 -0.036235858 0.042964585 0.011422371 -0.02484583 -0.03396048 -0.006037014
-0.012314233 -0.03635543 0.0023850056 -0.01150605 -0.0009544497 0.012218789 -0.006486528 0.013695513
0.01753198 -0.02346974 -0.031575415 0.0065116114 0.014600343 0.000891255 0.022250762 8.886057e-05
-0.002225915 -0.013400771 0.016794497 0.0069236 0.008740581 -0.008932746 -0.020574642 -0.010779605
-0.007962711 -0.04461314 -0.016520735 0.0052857897 -0.019119237 -0.014349466 -0.041815106 -0.0014543165
-0.017416978 -0.012135622 -0.020780563 -0.008680343 -0.009032134 -0.007397871 -0.010892036 -0.011340208
-0.049831286 0.0058968156 -0.0036851915 -0.0187332 -0.011036767 0.0040832697 -0.011612302 -0.01690313
-0.05349919 -0.011466094 -0.022968838 -0.021487184 -0.010451185 -0.017165415 -0.019673666 -0.026540477
-0.02509485 -0.017785538 0.012804971 -0.0103707705 -0.0054597333 0.034038458 -0.020383688 -0.014783577
0.0027642373 -0.007331697 -0.015200208 -0.02244074 -0.0050886143 -0.018111719 -0.016231826 -0.021134356
0.0008716008 -0.01908299 0.005160881 0.028047932 0.01759633 -0.009577696 -0.016340084 -0.018381165
-0.0135734435 -0.018723387 0.013681589 0.007617854 -0.016965698 -0.010327927 -0.016404064 -0.058384974
-0.021125372 -0.025450736 -0.0027181022 -0.007859113 0.0075748865 -0.032883815 -0.004037635 -0.022322709
-0.016180174 0.014052382 -0.021355465 0.0029480152 -0.014642986 -0.021964826 0.0051724324 8.2254075e-05
-0.017612651 -0.019728415 -0.060496196 0.009719265 0.009369939 0.006878074 -0.018092055 -0.010078444
-0.006159261 -0.01879746 -0.042614885 -0.00080886413 0.0019869674 0.005893809 -0.0065620667 -0.010240144
-0.022278564 0.009227933 -0.0006050661 -0.029915815 -0.0017490037 -0.024352394 -0.0007286914 -0.047096096
-0.011733839 0.0032443781 -0.009713219 -0.038205646 -0.017322293 -0.00030926216 -0.006141705 -0.036116123
0.01714529 -0.027048174 -0.01060614 -0.009487353 0.013303336 -0.01264629 0.022926675 0.031146368
-0.007181064 -0.002590891 -0.02671348 0.00016963911 -0.02126817 -0.013124362 -0.0033026524 -0.020963686
00000000: 1d20 89bb f5f0 9e3c 4a77 6b3c 2878 bcbc
00000010: 850d e0bc 3860 3dba 40de d2bc c80e 0aba
00000020: be39 49bc e613 ebbb 1444 32bc 8864 57bc
00000030: f042 7b3c a524 933c 8736 a43b 9552 443c
00000040: c2cd 713c c4cc 7e3c acd9 e1bb 218c e23c
00000050: 5835 cbbb 4786 92ba e5c1 5a3c 0c80 b6bb
00000060: dc53 183c 7881 2ebc f299 37bc be38 8b3c
00000070: c82d bdbc ca4f 9dbc 55fa 663b 73ed 11bd
00000080: 670b 42bb f750 fdbc 9d11 88bc 724c cebc
00000090: 9777 ad3b 96ea 13bb d047 493c 1ecf 903c
000000a0: 1784 bfbc e3ec 17bd 4521 3dbc b895 153c
000000b0: e7a6 cabc f675 03bb dc44 74bc c14a 11bc
000000c0: 47a9 1c3c 89dd 04bc aea5 cb3a c652 f9b9
000000d0: fbb1 9e3b 041f 4ebd 775e f2bc 0ec2 133c
000000e0: e1f5 72bb ccc0 b6bc ae2f 7bbc e796 f8ba
000000f0: 7239 c83c cb43 c83c 1bc3 d5bc d288 7a3b
00000100: 6947 b5bc b8a0 cfbc a15b f1b8 21ea b8bc
00000110: 8317 c93c 2262 2cbd bd09 a33c 1a99 903c
00000120: 211f e1bc c19c 0bbd a87d 0cbc a82d 99bc
00000130: 890b 24bc ec7b 89bc 243c 20bc b64d 3739
00000140: 9f6e 013c 0085 efbc d667 8b3c 30e4 863c
00000150: 3ca5 a5bc a285 c53a 38b9 603c 864f ac3c
00000160: b2a8 babc 5d20 32bc 3eb4 ac3b 7bde b23a
00000170: df55 dfbb 08eb 69bc 9f4c 34bc 05c2 aabc
00000180: 1bd0 e0bb bbb1 46bc 0d6c 14bd a2fb 2f3d
00000190: e524 3b3c 7b89 cbbc 251a 0bbd 25d2 c5bb
000001a0: a3c1 49bc 6ee9 14bd c14d 1c3b df83 3cbc
000001b0: 0934 7aba 5131 483c f18c d4bb 2563 603c
000001c0: 3a9f 8f3c 9d43 c0bc 3955 01bd 5b5f d53b
000001d0: 4736 6f3c 1ca3 693a 3b47 b63c a85a ba38
000001e0: a8e0 11bb e88e 5bbc 9d94 893c 5edf e23b
000001f0: a734 0f3c a75a 12bc 278c a8bc f19c 30bc
00000200: 0876 02bc 45bc 36bd 7e56 87bc 6b34 ad3b
00000210: f29f 9cbc 061a 6bbc 5146 2bbd c49e beba
00000220: 0dae 8ebc 7dd4 46bc 003c aabc ff37 0ebc
00000230: 84fb 13bc d769 f2bb 8374 32bc 48cc 39bc
00000240: e41b 4cbd 133a c13b 4183 71bb 5e76 99bc
00000250: 8ed3 34bc f3cc 853b 8641 3ebc 6f78 8abc
00000260: f721 5bbd 49dc 3bbc 2529 bcbc e405 b0bc
00000270: 723b 2bbc 7c9e 8cbc ab2a a1bc 6a6b d9bc
00000280: b793 cdbc fab2 91bc f1cb 513c 2aea 29bc
00000290: 90e7 b2bb e96b 0b3d b1fb a6bc d136 72bc
000002a0: 3528 353b bb3e f0bb 4b0a 79bc a5d5 b7bc
000002b0: 64be a6bb 075f 94bc 9bf8 84bc f521 adbc
000002c0: 247c 643a ee53 9cbc 9c1c a93b c7c4 e53c
000002d0: 2e26 903c c5eb 1cbc a4db 85bc 1994 96bc
000002e0: 2663 5ebc ca61 99bc be28 603c 319f f93b
000002f0: a6fb 8abc 7736 29bc d161 86bc 1525 6fbd
00000300: 1e0f adbc 107e d0bc 3022 32bb 82c3 00bc
00000310: c136 f83b 2eb1 06bd 234e 84bb 1dde b6bc
00000320: 498c 84bc f63b 663c a8f1 aebc 7d33 413b
00000330: 22e9 6fbc 94ef b3bc 827d a93b d27f ac38
00000340: 6848 90bc 7c9d a1bc dcca 77bd 8d3d 1f3c
00000350: 5f84 193c 7761 e13b ca35 94bc 0f20 25bc
00000360: a0d3 c9bb 21fd 99bc f28c 2ebd f409 54ba
00000370: c837 023b da20 c13b 9b06 d7bb 47c6 27bc
00000380: 8981 b6bc c230 173c 4c9d 1eba 0312 f5bc
00000390: d33e e5ba ac7e c7bc a705 3fba d6e7 40bd
000003a0: 4a3f 40bc a29f 543b 3124 1fbc 867d 1cbd
000003b0: 7be7 8dbc 7724 a2b9 5b40 c9bb 80ee 13bd
000003c0: 4774 8c3c 2294 ddbc 60c5 2dbc d870 1bbc
000003d0: 3cf6 593c 6232 4fbc b9d0 bb3c ab26 ff3c
000003e0: 224f ebbb f0cb 29bb 3ad6 dabc 27e1 3139
000003f0: 963a aebc 9007 57bc 5071 58bb 09bc abbc

network_body._body_endoder.seq_layers.2.weight f4 [256, 256]
0.04512509 -0.113779195 0.089536935 -0.1542586 -0.09556256 -0.10246585 0.06711977 0.0450084
0.006222433 -0.0943758 0.16568354 -0.095181376 -0.012626773 0.05306186 0.09747074 -0.09749113
-0.12618122 -0.046908136 -0.058670405 0.14535952 0.025599197 -0.15980996 -0.038636163 -0.13664
0.16499588 -0.16240071 0.124983266 -0.0079076495 0.16385168 0.13807875 0.012087296 0.08746991
-0.1361842 -0.00648198 -0.13548331 0.06140389 0.07048069 -0.02927975 -0.12222884 0.043790776
-0.024207558 0.06957066 -0.011339862 0.042507134 0.017525878 -0.007942432 0.03140553 0.10365647
-0.046457913 -0.102733985 -0.12434254 0.0018458454 -0.099625826 0.029346107 -0.0848494 -0.099149585
-0.17702398 0.0027289134 0.13427953 -0.11169814 -0.14677982 0.12255422 0.01049854 0.105611525
0.013973891 0.012297209 -0.03552041 -0.04936388 0.0143769765 -0.08500633 0.020925945 -0.05759954
-0.03669029 -0.07267984 0.071976334 -0.025608031 -0.068697594 -0.12352085 -0.11921933 -0.036048222
0.094795495 -0.06384654 -0.0151356915 -0.05662017 0.13559031 -0.086513594 -0.05503927 -0.07650133
-0.10020529 -0.13294655 -0.02186941 -0.11162186 -0.22418658 0.02996883 0.06746117 0.07531431
-0.04083999 -0.055373713 0.03518639 -0.09625575 -0.015926562 0.06645402 -0.05850358 0.021231784
-0.02820456 0.053687397 0.10833415 0.14455515 0.03393014 0.033881433 0.0554429 -0.03140318
-0.0065954337 -0.052928686 0.047589533 0.011058939 0.120694466 0.021873672 0.031471033 0.11003204
-0.022220118 0.1049337 -0.026185956 -0.02531726 -0.06616784 -0.012597385 -0.05625401 0.022272235
-0.008956531 -0.05962297 -0.076610595 -0.12534347 0.10226855 -0.07966412 0.09994037 0.06769057
-0.11820552 0.17678857 0.19456625 0.03361621 0.03788246 0.013367864 -0.03185998 0.11269466
0.22799678 -0.113263585 0.114296906 -0.05737223 -0.08141225 -0.13106635 0.030604418 0.023922917
0.065060854 0.08752027 -0.13005596 0.19119161 -0.08146608 0.01960179 0.004537682 0.016357074
-0.031433485 -0.02971795 0.13033225 0.110243864 0.050708562 0.102510914 0.07784162 0.07390945
0.06115556 0.037452944 -0.06460714 0.041550092 -0.0685916 -0.046313636 0.061848544 -0.09066583
0.05191071 0.0672827 0.024755206 0.036603644 0.07662515 -0.07666056 0.0539315 0.06337536
0.198165 0.08682896 -0.1854562 0.024180723 0.015772715 0.09322941 -0.05423891 0.0688763
0.0074267536 -0.022855733 0.012331984 0.08430907 0.045290254 -0.019903427 -0.042351693 0.04579844
-0.012765988 -0.017391745 -0.02363884 0.047625657 -0.14082684 -0.04933745 -0.019828474 -0.050024748
-0.1569395 0.14464356 -0.04770002 -0.040330935 0.1083551 0.058592986 0.1452755 -0.02334937
0.09807374 -0.20249699 -0.024680141 0.04475513 -0.028177526 -0.014582622 -0.17372505 0.08198334
-0.015303386 0.08388502 -0.046630334 -0.0031973126 0.14243694 -0.030882664 -0.07729226 0.056857012
-0.09466995 0.16473344 0.02687683 -0.034995463 0.104945004 -0.0332809 0.1594983 0.11987903
-0.010077769 0.020968767 -0.01671554 -0.08240034 -0.104201004 0.07279499 -0.033013724 0.11735317
0.22193967 0.09148439 -0.0045035495 -0.02149549 0.009641279 0.14394008 -0.044661634 -0.03927589
00000000: 16d5 383d 1105 e9bd 245f b73d f7f5 1dbe
00000010: 4eb6 c3bd 9ed9 d1bd 1776 893d ba5a 383d
00000020: 8de5 cb3b 1948 c1bd f2a8 293e 74ee c2bd
00000030: 86e0 4ebc 6557 593d bd9e c73d 6ea9 c7bd
00000040: a635 01be bf22 40bd 6150 70bd 20d9 143e
00000050: 68b5 d13c 39a5 23be f440 1ebd 5beb 0bbe
00000060: aef4 283e 5f4c 26be 3af7 ff3d 168f 01bc
00000070: bcc8 273e 8464 0d3e cb09 463c 6d23 b33d
00000080: df73 0bbe ca66 d4bb 23bc 0abe a582 7b3d
00000090: 2e58 903d 16dc efbc 1d53 fabd f55d 333d
000000a0: ee4e c6bc 107b 8e3d d4ca 39bc f61b 2e3d
000000b0: 6e92 8f3c f920 02bc 16a3 003d d849 d43d
000000c0: a74a 3ebd 3266 d2bd 4da7 febd 4bf0 f13a
000000d0: a008 ccbd 3f67 f03c 86c5 adbd f00e cbbd
000000e0: c645 35be 92d7 323b 9380 093e ffc1 e4bd
000000f0: 734d 16be b5fd fa3d 1102 2c3c db4a d83d
00000100: bff2 643c 3c7a 493c d97d 11bd c831 4abd
00000110: 698d 6b3c cc17 aebd e36c ab3c 7fed 6bbd
00000120: 8f48 16bd 2bd9 94bd 5468 933d efc7 d1bc
00000130: 53b1 8cbd 80f8 fcbd 4429 f4bd 4da7 13bd
00000140: 2424 c23d fac1 82bd b1fb 77bc 8dea 67bd
00000150: 30d8 0a3e 0a2e b1bd dc70 61bd bbac 9cbd
00000160: 6e38 cdbd 2423 08be 7a27 b3bc 009a e4bd
00000170: 2b91 65be 3181 f53c 1529 8a3d 643e 9a3d
00000180: d547 27bd 8ccf 62bd 9b1f 103d bc21 c5bd
00000190: 6c78 82bc 0c19 883d 73a1 6fbd 47ee ad3c
000001a0: 400d e7bc 51e7 5b3d 4bde dd3d 4406 143e
000001b0: 55fa 0a3d 42c7 0a3d 1818 633d 9fa0 00bd
000001c0: 821e d8bb c0cb 58bd 3eed 423d 8d30 353c
000001d0: a92e f73d 6a30 b33c c5e7 003d 7a58 e13d
000001e0: f706 b6bc 7be7 d63d ee83 d6bc 2466 cfbc
000001f0: 0183 87bd 4365 4ebc 9b6a 66bd 4374 b63c
00000200: 6abe 12bc 3737 74bd 04e6 9cbd 0a5a 00be
00000210: 2c72 d13d f126 a3bd 89ad cc3d 5ba1 8a3d
00000220: bc15 f2bd 1008 353e 603c 473e 27b1 093d
00000230: a32a 1b3d e304 5b3c 9c7f 02bd 75cc e63d
00000240: fd77 693e bdf6 e7bd 7f14 ea3d 25ff 6abd
00000250: 77bb a6bd 4236 06be 1eb6 fa3c fef9 c33c
00000260: a03e 853d d43d b33d 642d 05be bcc7 433e
00000270: b0d7 a6bd ef93 a03c d6b0 943b 45ff 853c
00000280: 66c0 00bd 0f73 f3bc d175 053e 89c7 e13d
00000290: c8b3 4f3d 3ef1 d13d 6d6b 9f3d d65d 973d
000002a0: 417e 7a3d 4268 193d c050 84bd 6e30 2a3d
000002b0: c179 8cbd 5eb3 3dbd e654 7d3d 02af b9bd
000002c0: 53a0 543d 83cb 893d 6ecb ca3c b4ed 153d
000002d0: a6ed 9c3d 3600 9dbd 47e7 5c3d f1ca 813d
000002e0: c4eb 4a3e 62d3 b13d 3be8 3dbe a716 c63c
000002f0: c835 813c 10ef be3d 9f29 5ebd 040f 8d3d
00000300: 205c f33b f23b bbbc 170c 4a3c 3caa ac3d
00000310: 4682 393d 830c a3bc f878 2dbd 2597 3b3d
00000320: 6f28 51bc 2279 8ebc 3ea6 c1bc 1f13 433d
00000330: e934 10be 1116 4abd 536f a2bc c0e6 4cbd
00000340: c0b4 20be 711d 143e 1961 43bd 0d32 25bd
00000350: 47e9 dd3d 33ff 6f3d 1ac3 143e 2e47 bfbc
00000360: e3da c83d 5f5b 4fbe 022e cabc 2851 373d
00000370: 8ed4 e6bc f3eb 6ebc fbe4 31be e2e6 a73d
00000380: 0ebb 7abc e9cb ab3d 73ff 3ebd 018a 51bb
00000390: fdda 113e a4fd fcbc 684b 9ebd e6e2 683d
000003a0: 52e2 c1bd e2af 283e cc2c dc3c 6757 0fbd
000003b0: 68ed d63d 8e51 08bd 8653 233e 2383 f53d
000003c0: 3a1d 25bc b1c6 ab3c 07ef 88bc 82c1 a8bd
000003d0: 5667 d5bd 8a15 953d 6639 07bd dc56 f03d
000003e0: 2744 633e 2b5c bb3d 8392 93bb 4f17 b0bc
000003f0: 74f6 1d3c 0765 133e 1eef 36bd c1df 20bd
